trained_models/classifier_DANN.pt (torch, 988789 bytes, 6 tensors)

classifier.0.weight f4 [100, 2352]
000000 05 48 af 3b 67 5e c2 bb c2 1b 19 bc 17 03 f8 3b
       0.0053491616 -0.005931664 -0.009344997 0.0075687277
000010 db 95 a1 3c fc b6 5c bc 31 56 9e 3c b9 a2 3a bb
       0.019724777 -0.013471361 0.019328209 -0.0028478338
000020 23 b6 16 bc a9 97 3c 3b 57 e6 b9 bb a2 90 2a bc
       -0.009198698 0.002877692 -0.0056732106 -0.01041046
000030 8f 93 82 3c 8b f0 6a 3b 2e a4 93 3c 11 53 fd bb
       0.015939502 0.0035848941 0.018022623 -0.0077308496
000040 ad 7c a7 3c 88 d1 86 3c 60 e1 50 3c 16 3e 8c 3c
       0.020445192 0.016457334 0.012749046 0.017119449
000050 1a 3e f3 bb 03 09 23 3c 1b 25 3f bc d5 81 50 bc
       -0.0074231746 0.009950879 -0.0116665615 -0.012726267
000060 48 6e 81 3c 73 79 85 bc 44 5b 80 bb 26 93 8c bc
       0.015799657 -0.016293263 -0.0039171297 -0.01716001
000070 ff a4 54 bc 61 7e 4e 3b f3 df 85 bb 7c 7e aa 3c
       -0.012978791 0.0031508433 -0.0040855347 0.020812266
000080 7b 91 06 bc be 7c 9d bc 1d 36 03 3c 9b 22 9f 3b
       -0.008213396 -0.01922452 0.008008507 0.00485642
000090 76 c8 0d bc 1e 08 a5 bc a1 41 0a 3b 5f 3e 0a ba
       -0.008653751 -0.020145472 0.0021096247 -0.0005273576
0000a0 56 e9 47 3c ca 3e a8 3c c0 e2 24 bc cc 53 1a 3c
       0.012201628 0.020537753 -0.010063827 0.009419393
0000b0 aa 05 62 bc 03 5d a7 3c 2f 69 35 3c 9d 1e 25 bb
       -0.013795296 0.020430094 0.011072441 -0.002519525
0000c0 80 a9 8d 3b 19 59 85 3c 03 98 8f b9 a2 66 1e bb
       0.0043231845 0.016277837 -0.00027388343 -0.002417006
0000d0 9b 53 10 3c 8d ab eb 3b 08 02 93 3c e2 fb bc 3b
       0.008808996 0.0071920813 0.017945305 0.0057673315
0000e0 21 d7 3f bc 62 94 48 3c 93 48 93 3b fb 6b 58 bb
       -0.011709006 0.0122424085 0.0044947355 -0.0033023346
0000f0 3b 9d db 3b 5b 31 a1 3a 75 28 4e bc e7 aa 64 bc
       0.006702093 0.0012298034 -0.012582888 -0.013956762
000100 dd 57 ad bc aa 96 55 3c 9c 9f 57 3c 5c b8 9b bc
       -0.02116006 0.013036409 0.013160612 -0.019008808
000110 a2 c0 1e 3b f9 1c 45 3c d6 f6 4b 3c ac 10 ce ba
       0.0024223705 0.012030833 0.012448987 -0.0015721521
000120 0e 34 a5 3c 71 40 82 bb e5 23 df 3b 58 9a e8 ba
       0.020166423 -0.003974967 0.006809699 -0.0017746193
000130 bf b3 cc 3a 1c 23 67 3c 38 0e 50 3c 7e 0e 5e bc
       0.0015617533 0.014107492 0.0126987025 -0.01355326
000140 c6 37 94 3c db ad 0f bc 0e 5d ab 3c 55 91 71 3b
       0.018093001 -0.008769478 0.020918395 0.0036860306
000150 44 8d 93 bc c5 98 ab 39 b2 09 a4 3c a0 4f 29 3c
       -0.018011697 0.00032729484 0.020024154 0.0103339255
000160 12 be 94 bc 89 23 a6 3c f5 c4 f8 bb c4 13 98 3c
       -0.018157039 0.020280616 -0.0075918385 0.018564112
000170 02 bb a7 3b 54 10 45 bc 2f f9 97 bb e9 d4 2d 3b
       0.0051187286 -0.012027819 -0.0046378593 0.002652461
000180 da cd 9d bc 56 5b 9e 3c 7c 87 3e bc fa d9 7b 3c
       -0.019263197 0.019330662 -0.011628982 0.015371794
000190 f8 90 c0 bc c2 00 8b bc cd 34 4a 3c 0c 54 83 bc
       -0.023506626 -0.016968135 0.01234169 -0.016031288
0001a0 e2 94 a1 3c ac 00 80 3c 54 65 c0 ba b5 7f 7d 3c
       0.019724313 0.01562532 -0.0014678636 0.015472342
0001b0 09 dc 84 3c 9b 94 84 39 3f b1 19 3c 4d e0 0e bb
       0.016218202 0.00025287722 0.009380638 -0.0021801174
0001c0 61 53 99 3c c0 94 61 3c c7 a4 9e bc 9d 80 4f bc
       0.018716516 0.013768375 -0.019365681 -0.012664941
0001d0 71 5d c2 3c 85 74 b1 bb 88 76 9d 3c a1 9f a1 3c
       0.023726197 -0.0054155015 0.01922156 0.019729437
0001e0 ac a3 7e bc 50 32 3d 3b 67 91 c4 3b 56 3b 85 3c
       -0.015541952 0.00288691 0.0059987786 0.016263645
0001f0 f2 37 a2 bc 0d 5e 65 3c 4b 19 7b bc 08 83 97 3b
       -0.019802067 0.013999474 -0.0153258545 0.0046237744
000200 a3 a5 16 3c cf 34 36 3c 73 06 84 bc f7 24 8f 3c
       0.009194764 0.011120989 -0.016116356 0.01747368
000210 ec f8 96 bb 97 f1 82 bc 2b b8 1c bb bd 8d 03 bc
       -0.0046073105 -0.01598434 -0.0023913484 -0.0080293985
000220 54 16 bd bc ec a7 9f ba 10 cc c7 3a fb 80 50 3c
       -0.023081936 -0.0012180782 0.001524331 0.012726064
000230 08 d4 f9 3b 27 7f a6 3c da d3 43 bc c5 cb 72 bc
       0.007624153 0.020324303 -0.011952365 -0.01481909
000240 62 94 9b 3c f4 d8 42 bc cf ba 35 bc 94 77 8e bc
       0.018991653 -0.011892546 -0.011091902 -0.017391004
000250 6b 7e 84 bc b0 b5 6f bc 13 d5 26 3c 92 52 24 3c
       -0.016173562 -0.01463072 0.010182637 0.010029452
000260 d5 67 1a 3c 28 46 a3 bc f3 ec 40 bc 14 5d a5 3b
       0.00942417 -0.019930914 -0.011775243 0.005046496
000270 06 61 a3 bc 89 8e 55 3c be b5 85 3c 8f 20 d4 3b
       -0.019943725 0.013034471 0.016322013 0.006473608
000280 c8 0e f4 ba da 72 85 bc c4 7e 9e bc 86 50 e5 39
       -0.0018620128 -0.016290117 -0.019347556 0.00043738278
000290 12 47 7d 3c fe 2e 17 3b 50 17 50 bc cd 13 96 3c
       0.015458839 0.002306878 -0.012700871 0.018319989
0002a0 f4 76 a9 bc 5b bb 4d bc ac 35 4d bc f7 88 cf bb
       -0.020686604 -0.012556876 -0.012525003 -0.006333466
0002b0 19 ed 8b 3c dc 19 0f 3c 8e 84 9c bc 7f 08 7f 3c
       0.01708083 0.008734193 -0.019106176 0.0155659905
0002c0 ce d8 8c bc 37 1b 17 3b ce df 49 3c 8c 16 35 bb
       -0.017193224 0.0023056993 0.012321426 -0.0027631847
0002d0 75 33 25 bc 9a dd 90 3c 24 96 96 bc 51 52 35 3c
       -0.010083069 0.017683793 -0.01838214 0.011066989
0002e0 a1 21 70 bc a7 bc 2a bc 62 d9 91 bc 12 d0 43 3c
       -0.014656455 -0.010420955 -0.017803852 0.011951463
0002f0 db 8e 80 b9 59 8e 59 bc 3a 04 87 bc 96 07 b9 bb
       -0.00024520498 -0.013278567 -0.016481508 -0.0056466563
000300 cf 32 78 3c 57 23 a3 bc ac 30 39 bc d0 ee 85 3a
       0.015148832 -0.019914312 -0.011303108 0.0010218266
000310 d5 79 03 bc 13 fe 9f b9 9e fd 48 bc f0 a0 91 bc
       -0.0080246525 -0.00030516143 -0.012267498 -0.017776936
000320 d1 fe 4b bb 49 17 6e bb 91 ef 9e 3b 5e 9b d3 3b
       -0.0031127224 -0.0036329797 0.004850336 0.00645773
000330 d6 b7 f4 bb 0b 91 f7 bb 3c 69 c6 3b 72 1c 1c 3c
       -0.007468204 -0.0075551323 0.0060550254 0.009528266
000340 87 6e 94 bc 27 4c 70 bc 92 36 27 3c b0 7f dc 3b
       -0.01811911 -0.014666594 0.010205882 0.0067290887
000350 95 36 ad bb 78 86 c4 bc 3d 37 17 bc 8a 61 a4 bc
       -0.0052860477 -0.023989901 -0.009229478 -0.020066041
000360 b2 60 a0 3c cb 37 9b bc 4f 0f 7c bb 4f 3f 10 bc
       0.019577358 -0.018947503 -0.0038461273 -0.008804156
000370 fd 4b 9d bc 0b 9f c4 b9 ab 85 99 bc 2f 02 38 3c
       -0.019201273 -0.0003750253 -0.018740496 0.011230989
000380 a2 58 07 bb 95 64 0d 3c 52 7f 71 3c 65 bc 87 bb
       -0.0020652195 0.008629938 0.014739828 -0.0041423314
000390 ca e2 17 3c b5 69 06 bc d8 56 8b bb e0 e1 a0 bc
       0.009270379 -0.008203913 -0.004252296 -0.019638956
0003a0 e1 1b a3 bc 6b c2 4c 3a e7 b8 12 bc 10 a5 c7 ba
       -0.019910755 0.0007810953 -0.008955217 -0.0015231688
0003b0 b9 17 cc 3b 3f f1 48 3c e0 16 35 3c 3d bf 9f bb
       0.006228414 0.012264549 0.011052817 -0.0048750923
0003c0 cb cd 9e bc 4f 32 13 3c f6 ba 79 3c 7f 3e 1d 3c
       -0.01938524 0.0089841625 0.015242329 0.00959742
0003d0 d9 46 1d bc 81 b4 a3 3c 74 ef 47 3c 8c e7 29 3c
       -0.009599411 0.019983532 0.012203086 0.0103701465
0003e0 64 1e 84 3c 4f 7a 1c bc 04 45 aa bb a5 24 8c 3c
       0.016127773 -0.009550645 -0.0051962156 0.017107317
0003f0 f7 99 25 3c 13 be a8 bc 7f 56 18 bc fa 75 8a bc
       0.010107509 -0.020598447 -0.009297966 -0.016901959

classifier.0.bias f4 [100]
000000 66 c8 1d bb 38 75 aa 3b 8c bb 95 3c 6d 59 ba bc
       -0.0024075746 0.005201962 0.018277906 -0.02274772
000010 87 b7 69 ba fc 5c f6 3b dc 75 e6 3c db c4 c2 ba
       -0.00089155923 0.007518409 0.028132372 -0.0014859693
000020 99 41 d3 3c a2 18 29 bb 49 7e d9 3c af 30 c8 ba
       0.025788115 -0.0025802036 0.026549475 -0.0015273298
000030 7e 41 4f bc 3c 89 fc 3c 1f f5 5e 3d a9 04 d0 3c
       -0.012649892 0.030827157 0.054432984 0.025392847
000040 75 b4 63 3c 92 5a 68 3b ef fb 98 3c 57 52 cd 3b
       0.013898005 0.0035454375 0.018674819 0.006265919
000050 d8 4d 8d 3c 5b 1f 0c 3d 57 23 1e bc ad 6d 18 3c
       0.017249033 0.03420959 -0.00965198 0.0093034925
000060 d6 57 1a 3c b2 98 b0 3b 56 d3 0c bc de c1 63 3c
       0.009420356 0.0053892964 -0.008595308 0.013901202
000070 28 f7 ca ba b8 b2 61 3a eb 8c 0e 3d de d8 a6 3c
       -0.0015485035 0.00086097 0.03480236 0.020367082
000080 cd 94 d6 3b de e6 c5 3c 21 ef a9 3c b4 6d 90 3c
       0.0065485 0.024157938 0.020743908 0.017630436
000090 80 ae 8b 3c aa 8b 97 bb dd ee 15 bc 41 a6 33 bc
       0.017050982 -0.0046248036 -0.009151188 -0.010964931
0000a0 0f cb 14 bb 48 9a d4 3c 9d 02 25 3c 44 01 af 3b
       -0.002270404 0.025952473 0.010071424 0.005340727
0000b0 fe 7f 40 bc 3a d2 8d 3c 48 36 1d bb be 52 1a 3d
       -0.011749266 0.017312158 -0.0023988653 0.037676565
0000c0 0f dd 2d 3d b0 8d 95 3c f7 37 9e bb 1d a8 da 3b
       0.042447146 0.018256038 -0.004828449 0.0066728727
0000d0 7b 07 0d 3d 04 27 e6 bb 68 8c cc 3c 45 04 9d bc
       0.034430962 -0.007023694 0.024969295 -0.019167075
0000e0 1e 61 ba 3c 33 8f 24 3c 4e 97 65 bc 2d f5 db 3c
       0.022751387 0.010043907 -0.014013125 0.026850307
0000f0 61 87 22 3b d4 20 32 bc 9c 80 57 3c 30 2d 40 bc
       0.002479993 -0.010872085 0.013153221 -0.011729524
000100 8a 66 b0 3c 25 c2 60 3d 54 4c 47 3d 93 73 7c bb
       0.02153327 0.05487265 0.048656777 -0.0038521036
000110 fc 1c 89 3c 6f c3 39 3c d5 48 60 3b 2a ff 55 3c
       0.016737454 0.011338099 0.0034223099 0.013061324
000120 8b 21 a7 3c f7 01 df bb 51 7b 2e 3b 8a 85 26 3c
       0.020401737 -0.006805654 0.0026623795 0.010163674
000130 1c f3 19 3d b4 b2 31 bc 9a 2b 9b 3c 13 e7 99 3b
       0.037585363 -0.010845829 0.01894169 0.0046967356
000140 94 3f b7 bb ea e2 10 3c a3 e8 1b 3c c6 90 e0 bb
       -0.005592296 0.008843163 0.009515914 -0.006853196
000150 37 16 ce bb a4 91 1e 3d ac db 47 3c f6 15 50 3d
       -0.0062892693 0.038713112 0.01219837 0.050802194
000160 dd d9 cc bb 34 01 d4 ba 76 8b e0 3c 2f 62 03 3c
       -0.0062515573 -0.0016174675 0.02741025 0.008019014
000170 1d bb a1 3c d4 87 bb 3b 0c 44 ca 3a 16 5e 72 3c
       0.019742543 0.005722979 0.0015431657 0.01479294
000180 b4 98 74 3c 20 f3 16 bc f6 f3 ae 3c 43 de af bc
       0.014928985 -0.009213239 0.021356564 -0.021468287

classifier.2.weight f4 [100, 100]
000000 75 8a ba bd df a1 fd 3c 7e 65 ce 3c 75 16 f9 3c
       -0.0910844 0.030960975 0.02519488 0.030406216
000010 03 d1 cf bd 26 27 8e bc 72 7b 66 bd 59 b4 fc bc
       -0.10147288 -0.017352652 -0.05627007 -0.030847715
000020 6c e2 b8 bd 1c 58 1b 3d 57 9c 6b bd 73 4f 9e 3d
       -0.090275615 0.037925825 -0.057522144 0.077299975
000030 2e 75 1c bc 56 43 07 be 70 33 83 bd 22 57 ee bd
       -0.009549422 -0.1320928 -0.06406295 -0.11637713
000040 e0 ca 4f bd c2 50 a9 3b 0d 7a ff bc 1e 52 16 3c
       -0.050730586 0.005167098 -0.031186128 0.009174852
000050 a9 18 dc bd fd f9 a2 3d de 62 81 3d 1e 45 d0 bc
       -0.10746891 0.07957838 0.063176855 -0.025423583
000060 17 f2 12 bc 65 ec b7 bb 20 d1 42 bd 7f 8d cd 3d
       -0.0089688515 -0.005612897 -0.04756272 0.10036754
000070 28 19 5c 3d 3f d4 e3 bd e3 91 00 be b5 97 54 3d
       0.05373493 -0.11124467 -0.12555651 0.05190249
000080 89 e9 2f bc 8a bd 60 3b 4a 5e 68 3d f1 45 c7 bd
       -0.010736831 0.0034292662 0.056730546 -0.09730137
000090 cf d8 d6 bd df d3 a9 3d f2 94 02 bd 74 2d aa 3d
       -0.10490572 0.08292364 -0.031880327 0.08309451
0000a0 ce f5 6c bc b0 1f ac bd 94 0b 52 3d 02 5d de 3d
       -0.014462901 -0.084044814 0.051280573 0.108575836
0000b0 fd fa 06 3b 1a 51 9f bd c9 6d 2f 3d 91 c5 5c 3d
       0.0020596378 -0.07779141 0.04282931 0.05389935
0000c0 16 3d f7 bc 3f dc d4 3d f3 9d ad 3d 7c 3c 5d 3d
       -0.030180495 0.10393571 0.08477392 0.05401276
0000d0 09 7d cb 3d 04 b0 ba bc d8 ff ad bd 11 de b5 3d
       0.09935958 -0.022789009 -0.08496064 0.088802464
0000e0 03 98 35 bd dc 15 b7 3c cc 01 0e 3d 0d 11 0e 3c
       -0.044334423 0.02234929 0.034669682 0.008671057
0000f0 f1 1f 1c bd a7 e0 91 3d 7c b6 08 be 48 5d 86 3a
       -0.0381164 0.07122927 -0.13350862 0.0010251189
000100 b2 c5 eb bc 66 a3 84 3d 16 92 d4 3c 06 e1 03 be
       -0.028780792 0.06476478 0.025948565 -0.12878808
000110 db 6f f6 bd 46 cb 0b 3d 17 7c 09 bd 35 de 92 bb
       -0.120330535 0.034129404 -0.033565607 -0.0044820555
000120 5c 68 b7 3d 8a 53 81 bd 12 69 f8 bc 47 e9 2e bc
       0.08955452 -0.06314762 -0.030323539 -0.010675735
000130 81 e2 35 3b 31 bf 0e bc 64 3b 1c 3d 1d bf 46 bd
       0.0027753415 -0.008712576 0.038142577 -0.048522104
000140 41 06 85 bd f0 5d fe bc 46 fa 2c 3d cf 77 f0 3c
       -0.064953335 -0.031050652 0.042230867 0.029354004
000150 45 e9 3f 3d 27 f2 4d bd 21 81 35 3e 20 3b a4 3c
       0.046853323 -0.050279763 0.1772504 0.020047724
000160 6e f5 35 3d 65 5e 95 bd c4 4d d5 3d b1 8d 42 3d
       0.044423513 -0.07293395 0.10415223 0.04749841
000170 8d 3f cd bc eb 49 09 bd f3 0c c1 3d 46 67 50 3d
       -0.025054717 -0.03351776 0.09426298 0.05087974
000180 ac 9e cf 3d dc ca 87 bd 4f e9 83 3d e5 1b c7 bd
       0.10137686 -0.06630489 0.064409845 -0.09722117
000190 53 db 15 3d fe b2 14 bc 32 74 26 bd 3c a8 49 3d
       0.036586117 -0.009075878 -0.040638156 0.049232706
0001a0 e5 85 32 3d 3e 31 94 bd 8f 04 01 3e 25 a4 bf bd
       0.043584723 -0.07235955 0.12599395 -0.0935748
0001b0 88 75 d1 3d 54 cc 85 3d bd c0 16 bb 46 95 b5 3c
       0.102274954 0.06533113 -0.0023003065 0.022165906
0001c0 c6 0b ff bc 3e 60 77 3b 17 66 85 3d 07 12 88 3d
       -0.031133544 0.0037746574 0.06513613 0.066440634
0001d0 93 99 bf 3c d2 ec 8b 3d 27 42 25 bd d2 3b 42 3d
       0.02338866 0.06832279 -0.04034629 0.04742033
0001e0 10 a5 14 3c fb af 17 3d b6 e4 83 bd 91 3b 41 3d
       0.009072557 0.037033062 -0.064401075 0.047175948
0001f0 9a e6 e7 bd 0d f2 e1 3d 61 63 90 3d c0 c2 f1 bc
       -0.11323281 0.11032496 0.07050205 -0.02951181
000200 c5 88 ca bb a8 5c c0 3d 9c 80 01 3b 18 dd e6 bd
       -0.006180855 0.09392673 0.0019760495 -0.11272639
000210 27 a1 cb 3c 84 4c 11 3e c0 9f b6 3d 12 49 37 3c
       0.024857117 0.14189345 0.08917189 0.011186855
000220 94 e6 6b 3d ad 0b 57 bd 8b 25 0e be 50 79 b8 bd
       0.057592943 -0.05250137 -0.13881509 -0.090075135
000230 8c dd 83 bd f8 2b dc bc 23 81 85 bd b5 99 09 be
       -0.06438741 -0.026876435 -0.065187715 -0.13437541
000240 76 1d 7b 3d 79 42 46 bd 74 10 e7 bc f7 1e 29 bb
       0.061307393 -0.048403237 -0.028206088 -0.002580581
000250 56 81 49 bc 90 fd cc bc b4 2c cf bc e0 98 49 bd
       -0.0122989025 -0.025023252 -0.02528987 -0.04921806
000260 31 f8 9e bd 0c 01 29 3d 6c 2d 52 3d a7 21 fb bb
       -0.077621825 0.041260764 0.05131285 -0.007663924
000270 ad a6 e7 3d 0a 61 c9 3c 32 22 35 b9 e8 64 74 3d
       0.11311088 0.024582405 -0.00017274244 0.059666544
000280 bf aa 49 3d f4 95 b9 bc a3 cb 08 be 30 ec ae 3d
       0.0492351 -0.022654511 -0.13358931 0.08541143
000290 40 68 21 3d 9a 51 80 bd f8 1f ac 3c 37 df f2 3d
       0.03940606 -0.06265564 0.021011338 0.11858981
0002a0 be 6b bc 3d 7e 42 a6 bc 31 68 8f bc 9e 7b 89 bd
       0.09200238 -0.020295378 -0.017505737 -0.06713031
0002b0 92 13 50 3d d1 69 6b 3d 0c 4a 12 3d 2a 4c 82 bc
       0.050799914 0.05747396 0.035715148 -0.015905458
0002c0 05 68 40 bd 91 26 b6 3c 5a 40 02 3e 30 22 8c bd
       -0.0469742 0.022235187 0.1271986 -0.06842458
0002d0 10 2e 39 3d c1 5e db bd 9a 41 6a 3d b5 98 b3 bd
       0.045209944 -0.10711432 0.05719147 -0.08769361
0002e0 09 f9 d0 3c 08 2a 61 3d 22 f2 07 3d 5c b1 97 3c
       0.025509374 0.054971725 0.0331899 0.018517189
0002f0 70 0e c3 bc ec ef 7f bd 02 a6 21 3d 84 cc a7 bb
       -0.023810595 -0.062484667 0.039464958 -0.0051208157
000300 bf 33 0e be 44 18 ed bd 52 ec a4 bc d5 02 ad 3d
       -0.13886927 -0.11576894 -0.020132218 0.08447806
000310 88 02 89 3d 75 07 94 bd 96 3f 81 bd d7 d6 a6 bd
       0.06689936 -0.07227985 -0.06310956 -0.08146446
000320 ab 95 a3 bd e6 45 a0 3d 22 39 10 bd 3b e7 a7 3d
       -0.07987531 0.07825832 -0.035210736 0.081984006
000330 ce db c7 bd 93 64 96 bd ab f2 c2 3c 09 33 31 3e
       -0.09758721 -0.07343402 0.023797354 0.17304625
000340 fe 27 c7 3d 20 c5 79 bd 9d e5 75 bd ed 19 74 bc
       0.09724425 -0.06097901 -0.06003343 -0.014898759
000350 6e ca c0 bd a5 87 72 3d 8e b4 ee 3d f2 ba 2b 3d
       -0.094136104 0.059211392 0.11655532 0.04192633
000360 30 9e b8 bd ea ac 95 bd 39 b4 66 bd 57 ae c2 3d
       -0.09014547 -0.07308371 -0.056324217 0.09505909
000370 1a df 77 bd 9d 3d 0a bd ad 22 bc 3d b6 f3 a9 bd
       -0.0605155 -0.033750165 0.091863014 -0.08298437
000380 3a a8 d8 bd 74 91 3c bd e7 20 78 3d 86 4a 7e 3d
       -0.10578962 -0.046037152 0.060578253 0.06208279
000390 cc f3 86 bd 1f c5 6d 3d 15 d2 2b 3e 71 69 dc 3d
       -0.06589469 0.058049317 0.16779359 0.10762299
0003a0 47 ff db 3d 94 7c 89 bc 86 65 cc bc 2d 68 a8 3d
       0.1074205 -0.016783036 -0.024950754 0.08222995
0003b0 53 8c e6 bc 35 6c 64 bd 9a f2 29 bd 24 69 b0 3d
       -0.028143084 -0.055767257 -0.04149113 0.08613804
0003c0 27 69 a3 3b f7 f7 bc 3b c4 d1 61 3d 25 ab ad 3d
       0.0049869004 0.0057668644 0.05513169 0.08479909
0003d0 ec ba c8 bc 99 8d 0d 3d 6e 65 ab bd 0c d3 11 bd
       -0.024503194 0.034558866 -0.083689556 -0.03560166
0003e0 4e 3b c5 3d 36 25 a2 3d 23 fd 2b bd ea 88 d0 bd
       0.09630452 0.07917254 -0.041989457 -0.10182364
0003f0 5b d8 ba 3d 74 39 6f 3d fd 04 c2 3d 2b a8 c9 bd
       0.09123298 0.0584044 0.09473608 -0.098465286

classifier.2.bias f4 [100]
000000 5a 80 93 3d 25 4b 26 bd fc b1 62 3b 8e ac be 3d
       0.072022155 -0.040599007 0.003459095 0.09310256
000010 b9 e8 2c bd 74 4b b0 bc 78 69 cd 3c 6b 78 c1 bd
       -0.04221413 -0.021520354 0.025074705 -0.09446796
000020 01 b2 c9 3d 7f 36 8a 3d 38 cb 4d 3d 8f ea 8d bc
       0.09848405 0.067486756 0.050242633 -0.01732376
000030 69 fb 3c bd 2b bf 51 3d c9 30 09 bc 7f 9e 90 bb
       -0.0461382 0.051207703 -0.008373448 -0.0044134255
000040 fa 40 a8 bd d1 ff a0 3d 47 96 79 3d 9f 10 b5 3d
       -0.08215518 0.07861293 0.06093433 0.08841061
000050 4f 80 b8 bd 25 e4 bb bd 86 56 47 3d 6a 5c 95 bd
       -0.09008848 -0.091743745 0.0486665 -0.07293017
000060 f2 a5 5b bd c4 bc 38 bd 10 31 67 bd ef 08 56 bc
       -0.053625055 -0.045101896 -0.056443274 -0.013063653
000070 32 14 72 bd a0 d6 e8 3d a9 83 6e bd d5 06 7a 3c
       -0.05910129 0.113690615 -0.05823103 0.015260418
000080 5d d9 8b bd fa 55 b8 bd 3e f7 62 3c 99 9f 37 3d
       -0.06828568 -0.09000774 0.013852892 0.04482994
000090 98 6f 9a 3d c7 ef 22 3c 8f 8e d9 bd ed 19 ce 3d
       0.07540816 0.009944863 -0.10622894 0.10063539
0000a0 cb af 5b 3d ef 6b 27 bc e6 05 07 bd 65 90 8b bc
       0.053634446 -0.0102186045 -0.03296461 -0.017036626
0000b0 97 8a 4e 3d ae bf 82 bd d5 4c b6 bd 8b 89 61 bd
       0.05042514 -0.06384216 -0.08901373 -0.05506281
0000c0 23 71 d6 bb d4 b1 60 3d 64 ff 2b 3d 73 83 e2 3d
       -0.0065442487 0.05485709 0.041991606 0.11060228
0000d0 01 8a 3e 3b 3d 64 cf 3d c3 89 23 3d b3 c2 a4 bc
       0.0029073956 0.10126541 0.0399263 -0.020112371
0000e0 8c 5e b2 bd 36 1d f9 3c bd b2 ff 3d 6d 8a ce 3d
       -0.0870944 0.030409437 0.124852635 0.10084996
0000f0 e7 1c ab 3d 6d 39 32 bd fa 20 17 3c 28 a0 44 3c
       0.08355122 -0.043511797 0.009224171 0.012001075
000100 b4 6a bf bb 02 12 c5 3d 9d 3d 2b bd 8e 86 c2 3d
       -0.0058415774 0.09622575 -0.041806806 0.094983205
000110 6e b4 da 38 fb b3 2b bd bb 30 62 bd d1 68 e8 3d
       0.00010428658 -0.04191969 -0.055222254 0.11348117
000120 97 ba 91 bd b9 c8 4c ba 8d 24 cb 3c 45 b8 99 3d
       -0.07115667 -0.00078118924 0.024797702 0.0750585
000130 3c 08 0d 3e b1 e1 0d 3e 6e e5 86 3c 9a 77 8b bd
       0.13772672 0.13855626 0.016466822 -0.068099216
000140 9e e3 6f bd d8 a2 3a bc 16 51 0e bd 79 93 bc 3d
       -0.058566682 -0.011391364 -0.0347453 0.09207816
000150 b4 9f d9 3d 0b 26 01 bd 05 fa 23 bd 97 a7 10 bd
       0.10626164 -0.03153042 -0.04003336 -0.035316076
000160 52 ad b1 3b d9 e3 bc 3a 75 10 8f 3d 17 49 68 3c
       0.0054222727 0.0014411166 0.06985561 0.014177582
000170 46 0a 74 3d fd 14 19 3e e1 6d a7 3d 3d 1c 02 3e
       0.05958011 0.14949413 0.081752546 0.12706085
000180 b4 a9 72 bd 74 30 bc 3c 52 1e f3 3c e2 53 78 bd
       -0.059243873 0.022972323 0.029677544 -0.060626872

classifier.4.weight f4 [10, 100]
000000 c1 59 f4 bc 6c 38 2c be 27 20 10 3c 7b e6 05 be
       -0.029827954 -0.16818398 0.008796728 -0.13076203
000010 80 bd bb bd c3 db 56 bd ca d2 04 3c 06 9c e3 3d
       -0.09167004 -0.052455675 0.008106897 0.111137435
000020 f0 0d 5b bd d2 46 a2 bd 99 bf 30 3b 12 9f 87 bb
       -0.05348009 -0.07923664 0.002696967 -0.0041388357
000030 f5 e5 dc 3d 98 b2 d2 bd 42 ab 0f be 5d 30 96 3d
       0.10786048 -0.1028797 -0.14030173 0.07333443
000040 34 64 1e 3d 69 a5 d9 bc 78 d1 39 bd 6e 2a bb bd
       0.03866978 -0.026568132 -0.04536578 -0.09138952
000050 a0 c0 89 bd 58 f3 ae bd d9 61 38 bd ba e7 01 be
       -0.067261934 -0.08542508 -0.04501519 -0.12686053
000060 80 93 4e bd 2c bc 63 3d 3b 79 04 be ec 52 d9 bd
       -0.050433636 0.055599377 -0.12936871 -0.10611519
000070 b1 f8 c3 bd 6d f0 54 bd 70 79 18 3c 5e c0 ed 3d
       -0.095689185 -0.0519871 0.009306297 0.11608957
000080 97 6b a2 bc c4 27 45 bd 89 b4 88 3d be 8c 19 3e
       -0.019826693 -0.048133627 0.06675059 0.14995095
000090 1a 82 e2 bd ad bc 16 be 37 7c 4d bd c4 66 01 be
       -0.11059971 -0.14720412 -0.05016729 -0.12636858
0000a0 6d cd e7 bd c7 f7 01 3e 30 89 0d 3e 1a 57 0e be
       -0.11318479 0.12692176 0.13821864 -0.13900414
0000b0 8f 89 a9 bd f9 3c 9a 3c 94 2d 9d bc cf ea 25 3e
       -0.0827819 0.018827902 -0.019186772 0.16202854
0000c0 72 3d d8 bc 41 12 3a 3e f1 15 8b 3c e1 9e c5 3d
       -0.026396487 0.18171026 0.016978236 0.09649444
0000d0 99 a8 9f 3c 7e da 51 3d 88 6f 8b bd ae e9 02 3d
       0.019489573 0.05123376 -0.06808382 0.031961136
0000e0 56 37 0d 3d 0a 96 89 bd 37 ba 0e be f3 ce bc 3d
       0.0344766 -0.06718071 -0.13938223 0.0921916
0000f0 82 4d 90 3e 2b cd 8b 3c a7 f2 21 3c 63 24 97 bd
       0.28184134 0.017065605 0.009884513 -0.07379987
000100 10 f1 b2 3d 50 41 b3 3e 71 22 fd 3c 78 44 0e be
       0.08737385 0.35010767 0.030900212 -0.13893306
000110 dd 01 51 be ae 27 12 be c8 e0 e4 3c a1 1b 20 be
       -0.20410867 -0.14272949 0.027939215 -0.1563554
000120 12 ef 4c 39 4c 15 29 be 5b 3c 58 3d df 51 1e be
       0.00019544017 -0.1651203 0.052791934 -0.15460919
000130 20 6b 03 be 6d cb f0 bd 33 47 90 3d f6 ec 71 bd
       -0.12833834 -0.117575504 0.0704483 -0.059063874
000140 28 34 d1 bd a6 8d 3d bd fb f4 5c 3c a8 c4 af bd
       -0.10215026 -0.046277665 0.013486142 -0.08582431
000150 5c 4e de 3d e6 3e f8 bd d3 cd de 3c 23 e2 21 bb
       0.108547896 -0.12121372 0.027197754 -0.0024701438
000160 66 01 64 3e ae 34 c6 bd b0 e4 eb 3d 9a fe 34 bd
       0.22266158 -0.096780166 0.11518228 -0.04418812
000170 aa ac 1f be 8a 42 a4 bd af c5 99 3e 09 f8 2a 3e
       -0.1559321 -0.08020504 0.30033633 0.1669618
000180 90 14 f6 3c 69 e3 8e 3e f3 37 3c be cd 63 04 3d
       0.030039102 0.27907875 -0.18380718 0.03232174
000190 ba c7 d3 3b 1d 9a 88 3c 49 db 92 bd 4c 16 12 bb
       0.0064630182 0.01667505 -0.071707316 -0.0022291122
0001a0 13 50 be 3d 40 18 d5 bd 83 f6 0c be 44 6d 44 3c
       0.09292617 -0.10405016 -0.13765912 0.011988942
0001b0 a4 84 32 be e8 6c b4 bd 42 f9 b3 3d df 42 56 bd
       -0.17433411 -0.08809835 0.087877765 -0.052309867
0001c0 a6 d8 9b 3a 71 d3 57 bd ba 83 e5 bc f8 fd da 3d
       0.0011890128 -0.05269188 -0.028016914 0.10692972
0001d0 87 5d 8e 3c 69 5a 16 be 83 07 af be 61 6e 87 3e
       0.017378582 -0.14682926 -0.34185418 0.264514
0001e0 36 e7 3f 3e d5 2d ac 3d 7d ba 8b 3e 8a 7d aa bc
       0.18740544 0.08407179 0.27290717 -0.020811815
0001f0 95 fc b9 3d 79 dc 73 bd b6 e0 08 be cb 9e 86 bd
       0.09081379 -0.05953643 -0.1336697 -0.06573256
000200 d3 89 18 3d e5 e8 7e bd 1a 03 bc 3d 4c 28 62 be
       0.037240814 -0.062233824 0.09180279 -0.22085685
000210 67 65 83 be 26 ea 4d bd 03 17 b5 3d e4 db 26 3e
       -0.256633 -0.05027213 0.0884228 0.16294819
000220 29 9a 16 3e 6f 17 71 3e 44 ec c6 bd 1c 95 fd 3c
       0.14707245 0.23544095 -0.09713033 0.03095489
000230 c5 78 a2 bc 27 52 4a be 39 62 bc 3d 7c db 23 be
       -0.019832978 -0.19757901 0.09198422 -0.16001695
000240 2b 97 cb bd 0d 06 4a bd cb cc 8d bd da be 63 bd
       -0.099409424 -0.049322177 -0.06923827 -0.055601932
000250 fd d8 43 bd 59 41 c9 39 2b 1d 2a bd 13 ab 34 3e
       -0.047814358 0.00038386395 -0.041531723 0.17643385
000260 c7 7f 53 3d 53 19 04 3e 1a bd bb bd 01 a9 c2 bd
       0.05163553 0.12900285 -0.09166928 -0.09504891
000270 08 d2 36 be f7 ef f9 bd 80 c7 99 3e 54 e9 50 3e
       -0.17853558 -0.12203973 0.3003502 0.20401508
000280 a8 4b 25 be d8 7c ee bc d5 57 bc bd e2 42 95 3d
       -0.16142142 -0.029112265 -0.0919644 0.072881475
000290 2d b2 1e bd a5 18 0d be 47 fe b2 bb ec 88 a5 bc
       -0.03874414 -0.13778932 -0.005462441 -0.020206891
0002a0 f0 32 84 3d a8 80 80 be b2 6a c5 3d 12 ba 8e 3d
       0.06455028 -0.25098157 0.09639491 0.06969084
0002b0 39 79 bd 3c a1 ba 1a be 94 18 6b 3c 29 dd 88 3e
       0.023129093 -0.15110256 0.014349122 0.26731232
0002c0 ac 49 c7 3e b3 83 07 3e 2e dc 5d bd 61 14 a7 3d
       0.38923395 0.13233833 -0.054165058 0.08158184
0002d0 ba c5 a7 3d 20 ee 37 3e 6c 3a 9e bd 56 8e 1c be
       0.0819201 0.17961931 -0.07725987 -0.15288672
0002e0 fd e7 b3 bd 3e 9f 17 be cf 75 a6 3d 73 8a 8c 3d
       -0.08784483 -0.1480684 0.08127939 0.068623446
0002f0 8e 6f 6f bd 87 d1 1d 3e 9d 48 8e be e7 2d ed 3d
       -0.058455996 0.1541196 -0.27789775 0.11581021
000300 ad 00 ed 3d ea 54 8e 3b d9 96 be 3d 48 cb 25 be
       0.115723945 0.0043436186 0.09306116 -0.16190827
000310 ae 30 62 be e1 44 54 bd 0f ea 06 bd f6 92 9a 3c
       -0.22088882 -0.0518235 -0.03293806 0.018868905
000320 d9 9f 53 3e 46 b1 f0 bd d4 1d 97 3d 6a 52 bc bc
       0.20666446 -0.11752562 0.07378736 -0.022988517
000330 59 98 8c bd 90 85 05 3e cf d3 29 be 49 a6 5a bd
       -0.068649955 0.13039231 -0.16584705 -0.053381238
000340 15 b7 8d 3c 35 8b 27 3d 2c 49 bc 3e 56 12 c2 bd
       0.017299214 0.040904243 0.36774576 -0.094761536
000350 bb 75 5c 3e e0 b3 86 bd 14 0f a0 bd ed c5 b4 3d
       0.21529286 -0.06577277 -0.07815376 0.08826814
000360 eb 7f a4 bd 44 ea 64 3e af d1 71 3c 63 46 f8 3d
       -0.08032211 0.2235499 0.014759465 0.121228
000370 ed b7 9d bd f1 92 81 bd 52 18 a8 bd df a3 26 bc
       -0.07701097 -0.06326855 -0.08207764 -0.010170906
000380 42 52 ac 3d 5f ed 8a bd 36 2a a5 3d 55 60 4b 3e
       0.08414127 -0.06783556 0.08064692 0.19860967
000390 99 05 45 3e e7 b2 7b be 0a e3 a6 bd 6b bb 19 3c
       0.19240417 -0.24579965 -0.08148773 0.009383063
0003a0 96 14 c6 3d 64 56 4c 3d 53 bb 23 bb 45 02 5a 3e
       0.09671895 0.049887076 -0.002498348 0.21289928
0003b0 f1 00 91 bd 2d 7b 98 be 75 28 a9 bd 65 8f f3 bd
       -0.07080258 -0.29781476 -0.0825967 -0.11892585
0003c0 00 dd 8f 3d e2 33 53 be e9 b2 23 be 35 b1 a4 3d
       0.07024574 -0.2062526 -0.15986218 0.08041612
0003d0 5a 3f 43 bd e3 7a 30 bc da 3e 22 3c 9d 85 a2 bd
       -0.04766784 -0.010771486 0.00990268 -0.07935641
0003e0 7d 43 1f bd 98 37 f5 bd 84 fc a1 3d e2 9c 24 3e
       -0.03888272 -0.11973494 0.07909492 0.16075471
0003f0 3c 4a bb 3d 72 95 d8 3b 8a 29 e8 3c 34 df a3 bd
       0.091450185 0.006609612 0.02834012 -0.08001557

classifier.4.bias f4 [10]
000000 30 fe 0d be fb fe 22 3d bc 13 11 3e e7 2b ed bc
       -0.13866496 0.03979395 0.14167684 -0.028951598
000010 59 c5 ef 3c fe 2c 97 3c 70 07 3d be d4 e4 8b 3d
       0.029268907 0.018454071 -0.18459868 0.06830755
000020 85 d6 4a 3d 19 7b d8 bd
       0.049520988 -0.10570354
