trained_models/classifier_Source-only.pt (torch, 988937 bytes, 6 tensors)

classifier.0.weight f4 [100, 2352]
0.005149903 -0.0060042157 -0.00922697 0.0074856775 0.01994326 -0.013413485 0.019405564 -0.0031330008
-0.009658165 0.00082226243 -0.006178995 -0.010765567 0.015045115 0.0035479243 0.017745305 -0.008367556
0.018766548 0.01706663 0.012775548 0.016413238 -0.007729976 0.009615289 -0.011752908 -0.012654981
0.014430308 -0.017834585 -0.004310773 -0.017473096 -0.013233534 0.003325211 -0.0042367354 0.019843625
-0.00837056 -0.019269058 0.008000517 0.0050686267 -0.0075841546 -0.018909898 0.0021159172 0.00058697886
0.011882504 0.020358702 -0.010160575 0.0093590375 -0.013450333 0.020145852 0.010978482 -0.0028968435
0.0040193023 0.016250124 -0.00025691342 -0.0024553202 0.009025366 0.007076697 0.01803262 0.005801992
-0.011711958 0.012533746 0.0050935964 -0.0030700404 0.0075969873 0.0011308078 -0.012663168 -0.013976492
-0.020535033 0.011671122 0.011797218 -0.019370796 0.0019714548 0.012045897 0.012238345 -0.0034595712
0.01886041 -0.011074377 0.0031519309 -0.0017827163 0.0015841306 0.013707551 0.012657412 -0.017378354
0.0068135513 -0.010267178 0.020796241 0.0037624838 -0.018206188 -0.0003131737 0.013013755 0.0017729872
-0.019032747 0.02045031 -0.0075421873 0.018356252 0.0034580717 -0.018724812 -0.006148753 0.002580157
-0.019301763 0.019449014 -0.013241465 0.01460358 -0.018437702 -0.014668921 0.013718335 -0.016294483
0.019512987 0.01318907 -0.0074770944 0.01153847 0.013328127 -0.0021998668 0.009296925 -0.0023206752
0.017912263 0.013582418 -0.01962363 -0.015162374 0.015948828 -0.004339726 0.018851481 0.017458133
-0.018518517 0.0013141788 0.008102584 0.015002504 -0.02069883 0.013136949 -0.014922108 0.006031633
0.010894481 0.012521051 -0.016904447 0.016513431 -0.0051669045 -0.01619598 -0.0032385397 -0.007961177
-0.022088258 9.8505254e-05 0.00085507275 0.011808204 0.0077549065 0.019243767 -0.013727349 -0.016013395
0.018160421 -0.0121601 -0.011295224 -0.017694227 -0.015549272 -0.011703734 0.012011927 0.010515041
0.009461859 -0.019912235 -0.011515654 0.009511815 -0.014558043 0.013921015 0.015470295 0.0066324347
-0.0016684206 -0.014283795 -0.017193891 -0.002077303 0.011111774 0.002313762 -0.012491091 0.01893314
-0.018142726 -0.009371334 -0.00792388 -0.0052142055 0.017168164 0.008525526 -0.019190626 0.016180815
-0.016039537 0.0009100633 0.012211132 -0.0037462267 -0.010365628 0.017676048 -0.019798663 0.012740682
-0.018349048 -0.010272413 -0.017680906 0.011720786 -0.00074865535 -0.0131885735 -0.016466925 -0.005800519
0.014292009 -0.020164164 -0.011742168 0.00045173283 -0.0080153225 -0.00025234142 -0.012355265 -0.017475333
-0.003176362 -0.0052391905 0.0047274055 0.006709541 -0.00737998 -0.008485156 0.007162903 0.009577742
-0.01942254 -0.013594951 0.010584607 0.0062009506 -0.0053560655 -0.01699108 -0.007703006 -0.017436625
0.019793738 -0.018759998 -0.005640704 -0.009015642 -0.020802494 -0.0012586301 -0.013315222 0.011055218
-0.001639519 0.009085089 0.01825457 -0.0062272004 0.004932591 -0.010787089 -0.0051051965 -0.019727854
-0.019601744 -0.0011958217 -0.013747286 0.0048577157 0.0048931576 0.009356164 0.011938936 -0.0053775646
-0.021674134 0.007789088 0.013192708 0.005573434 -0.009673622 0.019527065 0.011831593 0.009378477
0.014073503 -0.010833577 -0.0058632847 0.016983198 0.009621808 -0.020963253 -0.009648058 -0.017601123
00000000: 84c0 a83b 03bf c4bb b82c 17bc 6a4a f53b
00000010: 0c60 a33c 3cc4 5bbc 6bf8 9e3c 0853 4dbb
00000020: 483d 1ebc 198d 573a 2b79 cabb 1062 30bc
00000030: c97f 763c 4b84 683b 9a5e 913c 1318 09bc
00000040: 4ebc 993c 51cf 8b3c 8850 513c 0e75 863c
00000050: bd4b fdbb 7289 1d3c 458f 40bc d656 4fbc
00000060: 196d 6c3c d619 92bc 6341 8dbb bd23 8fbc
00000070: 77d1 58bc c8eb 593b 50d4 8abb 198f a23c
00000080: ac24 09bc 25da 9dbc 9a14 033c b916 a63b
00000090: 8084 f8bb eee8 9abc 33ab 0a3b 7cdf 193a
000000a0: d6ae 423c 4bc7 a63c 8a78 26bc a656 193c
000000b0: c95e 5cbc ea08 a53c 17df 333c f8d8 3dbb
000000c0: 5ab4 833b fb1e 853c 56b2 86b9 70e9 20bb
000000d0: 21df 133c a3e3 e73b 25b9 933c a31e be3b
000000e0: 83e3 3fbc 575a 4d3c 2fe8 a63b bb32 49bb
000000f0: 26f0 f83b 9d37 943a 2d79 4fbc a8fd 64bc
00000100: 1639 a8bc 3c38 3f3c 1e49 413c 81af 9ebc
00000110: 8633 013b 275c 453c 5783 483c f9b9 62bb
00000120: 2681 9a3c 4e71 35bc a090 4e3b 08aa e9ba
00000130: 9aa2 cf3a a395 603c 0961 4f3c 0d5d 8ebc
00000140: 3644 df3b aa37 28bc e15c aa3c 0194 763b
00000150: 2525 95bc 7631 a4b9 a537 553c 9463 e83a
00000160: 90ea 9bbc 6987 a73c 7424 f7bb da5f 963c
00000170: d1a0 623b c764 99bc 7b7b c9bb da17 293b
00000180: bb1e 9ebc 8a53 9f3c bbf2 58bc db43 6f3c
00000190: aa0a 97bc ea55 70bc dec2 603c 027c 85bc
000001a0: b3d9 9f3c f816 583c 6a02 f5bb da0b 3d3c
000001b0: 375e 5a3c a42b 10bb 2152 183c 7816 18bb
000001c0: bdbc 923c ca88 5e3c bcc1 a0bc 9b6b 78bc
000001d0: 1ea7 823c 4334 8ebb 6c6e 9a3c 5c04 8f3c
000001e0: 25b4 97bc 8640 ac3a b3c0 043c 10cd 753c
000001f0: 9890 a9bc 5c3c 573c db7b 74bc 01a5 c53b
00000200: c47e 323c 1825 4d3c 327b 8abc 2d47 873c
00000210: 234f a9bb 6fad 84bc ae3d 54bb 996f 02bc
00000220: 6ff2 b4bc 9b94 ce38 f626 603a 3377 413c
00000230: df1c fe3b 1ba5 9d3c ade8 60bc 862e 83bc
00000240: 2ac5 943c 283b 47bc 9a0f 39bc 7cf3 90bc
00000250: 60c2 7ebc 05c1 3fbc accd 443c 4747 2c3c
00000260: ea05 1b3c fc1e a3bc 27ac 3cbc 72d7 1b3c
00000270: dc84 6ebc f814 643c 1f77 7d3c e554 d93b
00000280: e8ae daba 9406 6abc 34da 8cbc 5c23 08bb
00000290: 280e 363c 7ca2 173b 6fa7 4cbc ac19 9b3c
000002a0: 0ea0 94bc 398a 19bc 29d3 01bc eddb aabb
000002b0: 40a4 8c3c a6ae 0b3c a935 9dbc a18d 843c
000002c0: 5965 83bc 5091 6e3a 3311 483c 4183 75bb
000002d0: 98d4 29bc 5ccd 903c ce30 a2bc 4bbe 503c
000002e0: be50 96bc 9f4d 28bc 8cd7 90bc 8a08 403c
000002f0: 6941 44ba e314 58bc a5e5 86bc 4812 bebb
00000300: 0829 6a3c 512f a5bc 3962 40bc 8ed6 ec39
00000310: b352 03bc b14c 84b9 bd6d 4abc 6e28 8fbc
00000320: 832a 50bb 84ad abbb 5ae8 9a3b b6db db3b
00000330: c2d3 f1bb 5305 0bbc c9b6 ea3b f6eb 1c3c
00000340: 051c 9fbc 5bbd 5ebc 0f6b 2d3c 5831 cb3b
00000350: ef81 afbb e130 8bbc 7f69 fcbb 41d7 8ebc
00000360: 7a26 a23c 91ae 99bc a8d5 b8bb 58b6 13bc
00000370: fe69 aabc 9ef8 a4ba 1728 5abc f220 353c
00000380: 21e5 d6ba a0d9 143c 9c8a 953c 8b0d ccbb
00000390: 93a1 a13b 55bc 30bc 7e49 a7bb 4f9c a1bc
000003a0: d693 a0bc 1ebd 9cba 4c3c 61bc 792d 9f3b
000003b0: c856 a03b 994a 193c 879b 433c 4836 b0bb
000003c0: f48d b1bc 9b3b ff3b 3a26 583c 5aa1 b63b
000003d0: 1d7e 1ebc 39f7 9f3c 4cd9 413c 2fa8 193c
000003e0: 8d94 663c 517f 31bc cc20 c0bb 5920 8b3c
000003f0: caa4 1d3c 21bb abbc e312 1ebc 3b30 90bc

classifier.0.bias f4 [100]
-0.0055762785 0.005696047 0.0065397853 -0.019919457 -0.006447858 0.014886116 0.0072870143 -0.0099246865
0.010934717 0.0005879324 0.010130951 -0.0026831168 -0.004023208 0.0114446245 0.028269213 -0.0004947444
0.01401089 -0.008048136 0.020069351 -0.0048219743 0.015356448 0.020805458 -0.018948473 -0.0055327737
0.008904965 0.0026494863 -0.007812945 0.013125952 -0.003614002 0.008609585 0.023175793 0.017368415
-0.0057756146 0.015090226 0.01632673 0.00589262 0.023385124 -0.0010807442 -0.005198553 -0.017186126
-0.008146998 0.009775162 0.0035303442 -0.006376457 -0.015744327 -0.010198032 -0.0037531862 0.027088296
0.025615098 0.014155942 -0.0076009682 0.0071794796 0.014384011 -0.008633942 0.017203327 -0.015737703
0.018913597 -0.00280433 -0.0181396 0.0059658242 0.010441529 -0.010016411 0.016615752 -0.009947686
0.021132326 0.029804781 0.018513696 -0.0073893615 -0.006690723 0.009955862 0.005953589 0.007382667
0.01675785 -0.0066801095 -0.0051756604 -0.00054958643 0.016701123 -0.0119458875 0.0063009732 -0.00067842886
-0.007160084 -0.0004984178 -0.004729672 -0.008684019 -0.02462271 0.01873745 0.0075449888 0.027062815
-0.015487026 -0.0021568537 0.014047196 0.00935742 0.0062932395 -0.007768931 -0.012988488 0.015019233
0.0039420496 -0.011784097 0.0093847 -0.019416904
00000000: 37b9 b6bb e8a5 ba3b b24b d63b 212e a3bc
00000010: 8e48 d3bb e5e4 733c e8c7 ee3b 279b 22bc
00000020: 8727 333c 7a1f 1a3a 4afc 253c 3bd7 2fbb
00000030: 1dd5 83bb 3c82 3b3c d694 e73c bcb1 01ba
00000040: ef8d 653c 54dc 03bc 7b68 a43c a701 9ebb
00000050: 9c99 7b3c 3570 aa3c d439 9bbc 454c b5bb
00000060: 21e6 113c 01a3 2d3b de01 00bc 3c0e 573c
00000070: e4d8 6cbb 380f 0d3c 29db bd3c 3548 8e3c
00000080: 5e41 bdbb ff3c 773c a2bf 853c e116 c13b
00000090: 2992 bf3c c2a7 8dba a058 aabb ebc9 8cbc
000000a0: fc7a 05bc 0028 203c 595d 673b 99f1 d0bb
000000b0: 3ffa 80bc a515 27bc 04f8 75bb 46e8 dd3c
000000c0: c1d6 d13c 53ee 673c 8b11 f9bb d741 eb3b
000000d0: eaaa 6b3c 6175 0dbc feed 8c3c 5bec 80bc
000000e0: b0f0 9a3c dac8 37bb 8099 94bc f67c c33b
000000f0: f212 2b3c df1b 24bc c21d 883c 9ffb 22bc
00000100: b31d ad3c 2829 f43c 09aa 973c 7522 f2bb
00000110: da3d dbbb e91d 233c 5316 c33b 4dea f13b
00000120: c247 893c d2e4 dabb 9698 a9bb 1f12 10ba
00000130: cbd0 883c afb8 43bc 6578 ce3b 97d8 31ba
00000140: 239f eabb 41a8 02ba 5dfb 9abb 6a47 0ebc
00000150: 91b5 c9bc 487f 993c f43b f73b d6b2 dd3c
00000160: 4cbd 7dbc 005a 0dbb 3626 663c dd4f 193c
00000170: 8537 ce3b 8492 febb abcd 54bc 3b13 763c
00000180: 4f2c 813b 1612 41bc 49c2 193c 3310 9fbc

classifier.2.weight f4 [100, 100]
-0.09344747 0.030912595 0.018667761 0.024155024 -0.072710924 -0.0005546563 -0.056021392 -0.024198439
-0.08302199 0.045823347 -0.028426917 0.08088476 0.009489884 -0.121925846 -0.06178059 -0.09517872
-0.047830533 -0.0018634984 -0.005681924 0.010347718 -0.0898611 0.073891506 0.06639135 -0.03126911
0.009913296 -0.003901577 -0.04469219 0.099135906 0.060921784 -0.10336981 -0.10203759 0.06447515
0.0016988852 -0.00762141 0.08475799 -0.094768584 -0.0953154 0.09897392 0.002140694 0.08746063
-0.013039648 -0.0793741 0.048198283 0.12033362 -0.016944014 -0.07981327 0.05029407 0.057303514
-0.032549895 0.09523149 0.09003642 0.050577044 0.0705425 -0.021887353 -0.05893774 0.103136286
-0.016130477 0.028219888 0.034572586 -0.012864027 -0.03350328 0.07122448 -0.09025888 0.0004437187
-0.03062437 0.09824058 0.008025016 -0.11118191 -0.111489005 0.034748532 -0.037635542 -0.020349618
0.08087964 -0.0655186 -0.033792652 -0.024699323 0.014064146 -0.0102428375 0.056785934 -0.034797784
-0.045561813 -0.023739384 0.034612756 0.028936375 0.089723855 -0.048652887 0.14777395 0.036751695
0.03838392 -0.06533533 0.10950519 0.046859406 -0.03712151 -0.003693231 0.085044175 0.05060589
0.08349226 -0.06133691 0.05729127 -0.08964825 0.03594595 -0.009009632 -0.012446431 0.05358438
0.048396617 -0.100938216 0.10725903 -0.08728422 0.0873484 0.060281448 0.007495705 0.023909986
-0.0047088787 -0.0013259161 0.10595757 0.089232855 0.01657189 0.07194432 -0.038369566 0.053377327
0.0049667326 0.024420561 -0.073730096 0.061779764 -0.0794717 0.10309608 0.06753031 -0.030955462
0.015095979 0.09056642 -0.00033422725 -0.07476979 0.017156098 0.14297509 0.042404033 -0.008833139
0.06384129 -0.046414286 -0.109931 -0.0915144 -0.07206161 -0.017006218 -0.065008834 -0.13350321
0.055763062 -0.055911757 -0.008677388 -0.003091707 0.010906126 -0.009465804 -0.020653266 -0.049204897
-0.06933889 0.04186608 0.022585431 0.017633501 0.12579194 0.03432721 -0.00071351463 0.083978124
0.05151845 -0.022790555 -0.117174454 0.08418174 0.04280808 -0.056197677 0.04423676 0.094309896
0.09731303 -0.026194036 -0.016865833 -0.046177518 0.056514077 0.056502156 0.02893723 0.013846643
-0.050464615 0.022997474 0.14229791 -0.051212844 0.04619526 -0.10307924 0.05423628 -0.08850959
0.045579273 0.06494551 0.012172589 -0.00019476423 -0.041333128 -0.049602043 0.029954184 -0.0042001423
-0.11666473 -0.108683795 0.03064871 0.08444998 0.08889915 -0.081815064 -0.056516524 -0.0853367
-0.08141158 0.07712426 -0.035074063 0.09865931 -0.07489304 -0.070639536 0.028178181 0.13857727
0.086699314 -0.05245433 -0.04215267 -0.009162451 -0.061142977 0.06326849 0.09951072 0.078177646
-0.10078432 -0.056016833 -0.05156045 0.069382176 -0.04643362 -0.0016463053 0.062456112 -0.07165993
-0.10926166 -0.04784187 0.063097514 0.061727587 -0.06577734 0.053331632 0.12503438 0.13373981
0.09122424 -0.023058906 0.004785059 0.03570514 0.00010284936 -0.051799435 0.02691295 0.067072704
0.005999786 -0.0054571643 0.049106922 0.08332458 -0.018524889 0.022426156 -0.060674056 -0.033032637
0.072754726 0.05461647 -0.035687942 -0.09601896 0.08959708 0.05705515 0.06495872 -0.0799243
00000000: 6361 bfbd 693c fd3c 22ed 983c c2e0 c53c
00000010: 77e9 94bd 5b66 11ba b076 65bd ce3b c6bc
00000020: 6f07 aabd 43b1 3b3d 91df e8bc e9a6 a53d
00000030: 757b 1b3c 42b4 f9bd a50d 7dbd 10ed c2bd
00000040: f3e9 43bd a140 f4ba 6f2f babb 7a89 293c
00000050: 1909 b8bd 6e54 973d 30f8 873d 0a14 00bd
00000060: 616b 223c 9ab1 7fbb 280f 37bd c407 cb3d
00000070: 1f89 793d 8db3 d3bd 16f9 d0bd 8c0b 843d
00000080: 21ad de3a 05bd f9bb 9995 ad3d 0816 c2bd
00000090: b834 c3bd d7b2 ca3d e34a 0c3b 8f1e b33d
000000a0: 3fa4 55bc e38e a2bd 906b 453d 7971 f63d
000000b0: 2cce 8abc 2475 a3bd 2801 4e3d 17b7 6a3d
000000c0: 0a53 05bd ba08 c33d 0465 b83d e029 4f3d
000000d0: 9678 903d 1b4d b3bc b368 71bd 1e39 d33d
000000e0: 1024 84bc 652d e73c fc9b 0d3d a4c3 52bc
000000f0: bc3a 09bd 24de 913d a6d9 b8bd eaa2 e839
00000100: f5df fabc 5b32 c93d 5b7b 033c 57b3 e3bd
00000110: 5954 e4bd 7a54 0e3d ba27 1abd 3eb4 a6bc
00000120: 3aa4 a53d 9e2e 86bd 2a6a 0abd 3c56 cabc
00000130: 4e6d 663c 93d1 27bc 5e98 683d 1f88 0ebd
00000140: 069f 3abd 1979 c2bc 1bc6 0d3d fa0b ed3c
00000150: 24c1 b73d 4048 47bd 0e52 173e f288 163d
00000160: 7538 1d3d 88ce 85bd 4244 e03d a6ef 3f3d
00000170: b90c 18bd 220a 72bb a42b ae3d 1f48 4f3d
00000180: fdfd aa3d 693c 7bbd 40aa 6a3d 8099 b7bd
00000190: 0f3c 133d 239d 13bc 1eec 4bbc 4b7b 5b3d
000001a0: 883b 463d b2b8 cebd 9faa db3d 12c2 b2bd
000001b0: b8e3 b23d aee9 763d 889e f53b e0de c33c
000001c0: f04c 9abb 5dca adba 4800 d93d b7bf b63d
000001d0: c6c1 873c 8b57 933d 6829 1dbd 2fa2 5a3d
000001e0: f9bf a23b a10d c83c ceff 96bd c70c 7d3d
000001f0: 0fc2 a2bd 0a24 d33d 554d 8a3d 4f96 fdbc
00000200: 2055 773c e37a b93d 393b afb9 e720 99bd
00000210: f28a 8c3c 1068 123e daaf 2d3d dfb8 10bc
00000220: 39bf 823d e81c 3ebd 8123 e1bd e76b bbbd
00000230: 0a95 93bd a050 8bbc 5a23 85bd 11b5 08be
00000240: cf67 643d ba03 65bd 9a2b 0ebc 3c9e 4abb
00000250: 9caf 323c 7616 1bbc 0a31 a9bc 138b 49bd
00000260: 8c01 8ebd c47b 2b3d 1505 b93c 2274 903c
00000270: 9acf 003e b09a 0c3d 280b 3bba b9fc ab3d
00000280: 0305 533d 42b3 babc 29f9 efbd 7a67 ac3d
00000290: 8657 2f3d 892f 66bd 9b31 353d 8c25 c13d
000002a0: 0e4c c73d e094 d6bc 372a 8abc a324 3dbd
000002b0: 4e7b 673d ce6e 673d c50d ed3c 08dd 623c
000002c0: fcb3 4ebd 3365 bc3c 8bb6 113e 8fc4 51bd
000002d0: 3e37 3d3d 351b d3bd dd26 5e3d 8444 b5bd
000002e0: 55b1 3a3d 2702 853d 8a6f 473c a039 4cb9
000002f0: ed4c 29bd 832b 4bbd 7a62 f53c 59a1 89bb
00000300: ebed eebd 9c95 debd 0113 fb3c 1cf4 ac3d
00000310: c210 b63d a88e a7bd df7d 67bd 02c5 aebd
00000320: 1dbb a6bd 53f3 9d3d d2a9 0fbd e40d ca3d
00000330: 8661 99bd 76ab 90bd eed5 e63c 33e7 0d3e
00000340: 698f b13d 5ada 56bd 47a8 2cbd 1b1e 16bc
00000350: 0f71 7abd e992 813d 47cc cb3d 9a1b a03d
00000360: 0268 cebd e871 65bd 0d31 53bd 3e18 8e3d
00000370: 2e31 3ebd d7c8 d7ba fbd1 7f3d 71c2 92bd
00000380: 94c4 dfbd d6f5 43bd 4539 813d 11d6 7c3d
00000390: 45b6 86bd 4572 5a3d 0309 003e 17f3 083e
000003a0: c6d3 ba3d 08e6 bcbc fccb 9c3b 8e3f 123d
000003b0: d4b0 d738 a52b 54bd 8c78 dc3c 6a5d 893d
000003c0: da99 c43b 03d2 b2bb 5724 493d 14a6 aa3d
000003d0: 82c1 97bc 0fb7 b73c 5c85 78bd 3b4d 07bd
000003e0: 6e00 953d 85b5 5f3d 852d 12bd 97a5 c4bd
000003f0: ad7e b73d a9b2 693d 1409 853d 5aaf a3bd

classifier.2.bias f4 [100]
0.063609645 -0.051652476 -0.008577697 0.06264743 -0.049096346 -0.039200146 0.004831793 -0.09286023
0.08877528 0.050153192 0.013993108 -0.034739494 -0.05244193 0.05166477 -0.012044608 -0.01014573
-0.07853605 0.079484954 0.04756161 0.0557066 -0.09350133 -0.09361137 0.019361187 -0.083774045
-0.06883826 -0.054964673 -0.08013101 -0.01711723 -0.07476078 0.09466399 -0.057861064 8.294285e-05
-0.04932759 -0.09029394 0.01801426 0.03214978 0.04687252 -0.011830275 -0.10508378 0.07165164
0.022212034 -0.025307896 -0.037603423 -0.04776694 0.049047444 -0.06773515 -0.09047955 -0.07338057
-0.025419965 0.04965627 0.034613762 0.087622195 -0.022105103 0.09595497 0.03200447 -0.046228822
-0.09430961 0.017029896 0.09753023 0.08906868 0.09095597 -0.043786995 0.00861197 0.002168234
-0.019502787 0.098125994 -0.053354353 0.086168155 -0.020233257 -0.06722637 -0.052213248 0.08383483
-0.078206874 -0.036882527 0.016863544 0.022123292 0.10917695 0.116435915 0.0070589907 -0.06586282
-0.0664287 -0.021495162 -0.033210713 0.08054519 0.08207309 -0.0603241 -0.045850016 -0.038255095
0.0065081734 -0.007839652 0.06691017 0.0107947355 0.031224504 0.11030794 0.082237884 0.11309802
-0.07002019 0.04467472 -0.014793633 -0.06415594
00000000: c645 823d 8c91 53bd 7889 0cbc 4c4d 803d
00000010: 4019 49bd 5590 20bd 0454 9e3b 812d bebd
00000020: d0cf b53d 6f6d 4d3d 5943 653c 004b 0ebd
00000030: 59cd 56bd 709e 533d bf56 45bc 473a 26bc
00000040: 82d7 a0bd 02c9 a23d f6cf 423d 9b2c 643d
00000050: a07d bfbd 51b7 bfbd 5a9b 9e3c ba91 abbd
00000060: 13fb 8cbd a322 61bd ba1b a4bd 6f39 8cbc
00000070: 2e1c 99bd 32df c13d b9ff 6cbd 9bf1 ad38
00000080: ba0b 4abd 07ec b8bd a492 933c 7daf 033d
00000090: 66fd 3f3d c5d3 41bc 2a36 d7bd 18be 923d
000000a0: 03f6 b53c 8152 cfbc 0c06 1abd 44a7 43bd
000000b0: f9e5 483d bab8 8abd 584d b9bd 8d48 96bd
000000c0: 883d d0bc 5f64 4b3d 29c7 0d3d 4473 b33d
000000d0: c315 b5bc 0a84 c43d 1e17 033d 6f5a 3dbd
000000e0: 6625 c1bd 4882 8b3c eebd c73d a469 b63d
000000f0: 2047 ba3d fe59 33bd 3819 0d3c ee18 0e3b
00000100: 4fc4 9fbc 48f6 c83d 188a 5abd ee78 b03d
00000110: 37c0 a5bc fbad 89bd 8fdd 55bd 98b1 ab3d
00000120: ed2a a0bd 2212 17bd 6a25 8a3c e83b b53c
00000130: 2a98 df3d f475 ee3d 1b4f e73b 16e3 86bd
00000140: c50b 88bd 9f16 b0bc f507 08bd e0f4 a43d
00000150: f015 a83d 6716 77bd 3acd 3bbd 60b1 1cbd
00000160: 8442 d53b e271 00bc 3308 893d 67dc 303c
00000170: 88ca ff3c 21e9 e13d 566c a83d ef9f e73d
00000180: bf66 8fbd d7fc 363d fe60 72bc 3164 83bd

classifier.4.weight f4 [10, 100]
0.0053619784 -0.13101768 0.024501134 -0.1242072 -0.07835018 -0.076949246 -0.020758323 0.11676573
-0.03136796 -0.12186827 0.03958277 -0.007986585 0.08647646 -0.09619403 -0.14448424 0.07933777
0.045107875 0.005444845 -0.06094673 -0.07045786 -0.06335629 -0.08355943 -0.091637805 -0.12499983
-0.034266967 0.070436195 -0.12429259 -0.055631373 -0.08203696 -0.046376605 0.022374202 0.093564734
0.013578954 -0.03760563 0.082787044 0.19465849 -0.10600841 -0.11853106 -0.044683076 -0.10736504
-0.058994826 0.14150788 0.17454684 -0.12345494 -0.07975476 0.038723357 -0.03756755 0.15073226
-0.037411883 0.17189066 0.040590104 0.038168315 0.04398426 0.070892364 -0.044898935 -0.0050853756
0.009944455 -0.07542316 -0.11585685 0.0792656 0.27786154 0.023788821 0.014301509 -0.050648946
0.047063146 0.4075837 0.015668562 -0.121282436 -0.21209782 -0.11672635 0.030063797 -0.17517278
0.0013166702 -0.0975701 0.034098953 -0.13437977 -0.10679822 -0.10493231 0.041960567 -0.06655814
-0.08092914 -0.043172076 0.014521996 -0.07185878 0.11717656 -0.1594687 0.038987227 0.00020090512
0.24760382 -0.08162632 0.1297896 -0.03854066 -0.12726262 -0.067961775 0.31878975 0.19335017
0.044647604 0.2841501 -0.13561401 0.036406737 -0.002486939 0.027218468 -0.056175597 0.035246506
0.08212624 -0.07733937 -0.14032072 0.0045351204 -0.14635003 -0.0592601 0.10048313 -0.053768504
0.017559871 -0.037385378 -0.04767216 0.097945996 0.019275226 -0.15436015 -0.30320555 0.22702938
0.19440868 0.06009098 0.19737004 -0.024637204 0.06231131 -0.036495067 -0.1381777 -0.063888974
0.038669348 -0.029366842 0.071394816 -0.22281611 -0.24815585 -0.061014052 0.06874787 0.11792836
0.14669698 0.18048863 -0.09266674 0.04653836 -0.011671541 -0.19094466 0.08773589 -0.14967063
-0.095475696 -0.061444253 -0.07113055 -0.027500033 0.008001152 -0.006471186 -0.043232046 0.16043784
0.04226019 0.11062329 -0.07183763 -0.0903543 -0.15767959 -0.10381268 0.27579877 0.17932029
-0.14417237 -0.023603 -0.08446351 0.034163926 -0.02728226 -0.11667926 -0.005613604 -0.012435882
0.08550791 -0.22369635 0.09156149 0.07869211 0.025961546 -0.09746224 0.018685443 0.29888996
0.36914256 0.1682255 -0.025583996 0.082789265 0.06544777 0.14163376 -0.083855316 -0.16095915
-0.025080213 -0.16228016 0.08368897 0.038959507 -0.08516075 0.15044254 -0.26305813 0.121068485
0.123243585 0.030426359 0.078710064 -0.13659583 -0.20314544 -0.058884088 -0.06516193 0.017480845
0.229584 -0.10210004 0.074184276 -0.030205356 -0.07755114 0.15128453 -0.16706534 -0.05358413
0.008040594 0.031253766 0.3929205 -0.089597024 0.19745176 -0.05484792 -0.06947491 0.07808347
-0.088270396 0.21876413 0.036453728 0.11694563 -0.08333665 -0.0654578 -0.08497915 -0.0018371895
0.06435531 -0.053493124 0.04801627 0.18477692 0.16149427 -0.21148528 -0.11229147 -0.058366906
0.036708083 0.055531975 -0.014254841 0.241131 -0.04433608 -0.25651744 -0.075334154 -0.13844573
0.059517883 -0.16511935 -0.10881801 0.013891146 -0.046440676 -0.032997787 0.0079837805 -0.06428924
-0.04864057 -0.11293189 0.07537375 0.15579985 0.033447083 -0.0071146023 0.048547983 -0.07247085
00000000: 89b3 af3b 8029 06be 9ab6 c83c 5860 febd
00000010: 0f76 a0bd 9197 9dbd 5c0d aabc df22 ef3d
00000020: b17b 00bd 1296 f9bd 8b21 223d 2ada 02bc
00000030: 921a b13d 6001 c5bd adf3 13be d77b a23d
00000040: 09c3 383d ac6a b23b 47a3 79bd 364c 90bd
00000050: f1c0 81bd 3521 abbd 9aac bbbd e9ff ffbd
00000060: 855b 0cbd da40 903d 1d8d febd b9dd 63bd
00000070: fe02 a8bd 65f5 3dbd 1a4a b73c de9e bf3d
00000080: 437a 5e3c 5c08 1abd 418c a93d 8e54 473e
00000090: f01a d9bd 6ac0 f2bd 9a05 37bd 34e2 dbbd
000000a0: 8fa4 71bd 71e7 103e 68bc 323e f2d5 fcbd
000000b0: 7756 a3bd 629c 1e3d 6ee0 19bd 8f59 1a3e
000000c0: 343d 19bd 1b04 303e cf41 263d 6156 1c3d
000000d0: d728 343d 0430 913d f2e7 37bd 39a3 a6bb
000000e0: 11ee 223c 7577 9abd 5b46 edbd 0156 a23d
000000f0: de43 8e3e c6e0 c23c e050 6a3c 4575 4fbd
00000100: 49c5 403d d0ae d03e 5b5b 803c ed62 f8bd
00000110: 2c30 59be 390e efbd 5a48 f63c 7e60 33be
00000120: 1f94 ac3a d5d2 c7bd 58ab 0b3d da9a 09be
00000130: 06b9 dabd c0e6 d6bd d8de 2b3d a24f 88bd
00000140: 2dbe a5bd 34d5 30bd aaed 6d3c b22a 93bd
00000150: 44fa ef3d c34b 23be 12b1 1f3d 0faa 5239
00000160: db8b 7d3e b32b a7bd 91e7 043e d0dc 1dbd
00000170: 2251 02be 8b2f 8bbd 6938 a33e 96fd 453e
00000180: 68e0 363d 1f7c 913e 66de 0abe 3b1f 153d
00000190: eafb 22bb 44f9 de3c 6218 66bd a45e 103d
000001a0: cd31 a83d 1b64 9ebd 3cb0 0fbe 599b 943b
000001b0: c8dc 15be b8ba 72bd 19ca cd3d 5d3c 5cbd
000001c0: b8d9 8f3c 6921 19bd e243 43bd e997 c83d
000001d0: 14e7 9d3c 9610 1ebe c23d 9bbe 647a 683e
000001e0: 1213 473e f621 763d 5f1b 4a3e f6d3 c9bc
000001f0: 253a 7f3d da7b 15bd 747e 0dbe 39d8 82bd
00000200: c063 1e3d bb92 f0bc 7237 923d e829 64be
00000210: 911c 7ebe dfe9 79bd afcb 8c3d 6d84 f13d
00000220: bc37 163e 03d2 383e 0fc8 bdbd 029f 3e3d
00000230: fe39 3fbc ff86 43be e0ae b33d 4243 19be
00000240: c388 c3bd f8ac 7bbd e5ac 91bd c047 e1bc
00000250: 4417 033c 3e0c d4bb 1614 31bd d149 243e
00000260: 0519 2d3d 778e e23d 9b1f 93bd ad0b b9bd
00000270: c276 21be be9b d4bd 7f35 8d3e bd9f 373e
00000280: eca1 13be 145b c1bc 34fb acbd 79ef 0b3d
00000290: 0c7f dfbc 89f5 eebd 53f2 b7bb dfbf 4bbc
000002a0: c51e af3d a810 65be 9784 bb3d 5429 a13d
000002b0: 4fad d43c 489a c7bd 3712 993c 1b08 993e
000002c0: 4100 bd3e 4e43 2c3e 8795 d1bc 6b8d a93d
000002d0: 7b09 863d 7108 113e 56bc abbd 7ad2 24be
000002e0: 0575 cdbc c52c 26be 1f65 ab3d 0194 1f3d
000002f0: c268 aebd 9c0d 1a3e 8eaf 86be c1f2 f73d
00000300: 2267 fc3d b340 f93c be32 a13d c7df 0bbe
00000310: 5c05 50be 7130 71bd 9e73 85bd fd33 8f3c
00000320: 1118 6b3e d319 d1bd eded 973d 3971 f7bc
00000330: 22d3 9ebd 55ea 1a3e 2d13 2bbe 087b 5bbd
00000340: b2bc 033c f303 003d e02c c93e a57e b7bd
00000350: cb30 4a3e 36a8 60bd dd48 8ebd 3aea 9f3d
00000360: 1cc7 b4bd b403 603e 8150 153d 3181 ef3d
00000370: 68ac aabd bd0e 86bd 8c09 aebd dacd f0ba
00000380: b7cc 833d 9b1b 5bbd b5ac 443d 2936 3d3e
00000390: c15e 253e 998f 58be 12f9 e5bd 2312 6fbd
000003a0: 375b 163d 7f75 633d 238d 69bc 0beb 763e
000003b0: c099 35bd 4156 83be cb48 9abd b8c4 0dbe
000003c0: 06c9 733d 0c15 29be fadb debd b097 633c
000003d0: 9438 3ebd b028 07bd 67ce 023c 14aa 83bd
000003e0: 563b 47bd d648 e7bd 8d5d 9a3d ff89 1f3e
000003f0: cfff 083d 9c21 e9bb 40da 463d 996b 94bd

classifier.4.bias f4 [10]
-0.103412755 -0.009811062 0.12478202 -0.0218019 0.038892217 0.01803159 -0.11935105 0.014764824
0.0431467 -0.096135095
00000000: 11ca d3bd 94be 20bc b78d ff3d e699 b2bc
00000010: 724d 1f3d fcb6 933c 536e f4bd 29e8 713c
00000020: 98ba 303d 7ae2 c4bd
