trained_models/encoder_DANN.pt (torch, 166223 bytes, 4 tensors)

extractor.0.weight f4 [32, 3, 5, 5]
0	0xbe5e9dce	-0.21739885
1	0xbcfc2aa8	-0.030782059
2	0xbc057213	-0.008144873
3	0xbdc428c2	-0.095780864
4	0x3d7afb2c	0.061274692
5	0xbe093066	-0.13397369
6	0xbda3bfd7	-0.07995575
7	0xbe178964	-0.14798504
8	0x3cb0a9f5	0.021565417
9	0xbd83d8e1	-0.06437851
10	0xbe891bc7	-0.26779005
11	0xbe2ef170	-0.17084289
12	0xbe492045	-0.19641216
13	0xbde31b94	-0.110892445
14	0xbc20cc28	-0.0098143
15	0xbddaa886	-0.106766745
16	0xbcecb986	-0.028897058
17	0x3c85e427	0.016344143
18	0xbccdc9c2	-0.02512062
19	0xbe08546a	-0.13313451
20	0xbe8fb94f	-0.28071067
21	0xbe002535	-0.12514193
22	0xbe5d7aa5	-0.21628816
23	0xbe399a26	-0.18125209
24	0xbe358f0f	-0.17730354
25	0xbd916453	-0.070992135
26	0x3df38795	0.118910946
27	0x3e3162d3	0.17322855
28	0x3cf31ff4	0.029678322
29	0x3e4ae010	0.19812036
30	0xbd9effc1	-0.07763625
31	0x3e44269d	0.19155355
32	0x3d51f694	0.051260546
33	0x3d7670de	0.060166232
34	0x3d76d56c	0.06026213
35	0x3b9792cc	0.004625654
36	0x3d983458	0.07431859
37	0x3da9c93e	0.08290337
38	0xbd70b488	-0.058765918
39	0x3e13a59a	0.1441864
40	0xbc7ddfe3	-0.015495273
41	0x3dfae28c	0.12250242
42	0x3e3e8be5	0.18608053
43	0x3e248abe	0.16068551
44	0x3e007ac5	0.12546833
45	0xbe72703e	-0.2367563
46	0xbd6e6639	-0.058202956
47	0xbd6f6cd3	-0.058453392
48	0xbe477bb4	-0.19480783
49	0xbd0babe1	-0.034099463
50	0x3e24649d	0.16054006
51	0x3d86ba56	0.065785095
52	0x3dae2d13	0.08504691
53	0xbe716ce0	-0.23576689
54	0x3c8f949d	0.017526919
55	0x3e0576a7	0.13033544
56	0x3ceaf190	0.02867964
57	0xbdef379e	-0.1168053
58	0xbe491117	-0.19635426
59	0xbe08aa41	-0.13346197
60	0x3e14b0c6	0.14520559
61	0x3eb59487	0.3546488
62	0xbe15036f	-0.14552091
63	0xbe6f1181	-0.23346521
64	0xbc341724	-0.010991845
65	0x3e7357d2	0.2376397
66	0x3edbc8ad	0.4292654
67	0x3e621349	0.22077669
68	0x3db7c255	0.08972613
69	0x3e62a261	0.22132255
70	0x3e624899	0.22098006
71	0x3e12134d	0.14265175
72	0x3e2af215	0.1669391
73	0xbc34eb20	-0.011042386
74	0x3daf0ec1	0.08547736
75	0x3d259b5f	0.040431377
76	0xbd1ea4b4	-0.038731292
77	0xbce22078	-0.027603373
78	0x3de8c572	0.11365785
79	0x3dc9dd12	0.09856619
80	0x3c298b4e	0.010348154
81	0xbd88bdce	-0.06676827
82	0x3d06558a	0.03279642
83	0x3d7df3e7	0.06200018
84	0x3e10f402	0.14155582
85	0xbd7ba162	-0.061433204
86	0x3dbfc0f0	0.09362972
87	0xbe16f512	-0.14741924
88	0x3d5db887	0.054131057
89	0x3dfda9c3	0.12385895
90	0xbd43e407	-0.047824886
91	0x3d9129ad	0.07088027
92	0xbd5dbc66	-0.05413475
93	0x3d63940e	0.055561118
94	0x3c02e832	0.00798993
95	0xbdef5696	-0.11686437
96	0xbcb2f3b1	-0.021844717
97	0xbe5dbf92	-0.2165511
98	0x3c15e1c3	0.009148064
99	0x3d43f8ef	0.047844823
100	0xbd5080e2	-0.050904162
101	0xbaed5ed1	-0.0018109923
102	0x3ceb8f72	0.028754923
103	0x3ddb23f7	0.10700219
104	0x3dfed931	0.1244377
105	0xbc89a4b3	-0.016802168
106	0xbd1cc5a9	-0.03827444
107	0x3c3c1c89	0.011481413
108	0x3d1287ee	0.035774164
109	0x3e2db8d3	0.16965036
110	0xbe5b78b4	-0.21432763
111	0xbd2e4d7a	-0.042554356
112	0xbe6c282b	-0.23062198
113	0x3dccbb4d	0.09996662
114	0xbd68c63e	-0.056829683
115	0xbdbe7b57	-0.09300869
116	0x3c47d4b6	0.01219671
117	0xbcba2683	-0.022723442
118	0xbd31027a	-0.043215252
119	0x3d8bb2b0	0.06821191
120	0xbd2d2cf3	-0.042279195
121	0xbe312a1a	-0.17301217
122	0x3b0e68a3	0.0021729849
123	0x3c7d7bba	0.015471393
124	0x3aa97528	0.0012928592
125	0x3dfbee1d	0.12301276
126	0xbd3ff673	-0.04686589
127	0xbe82057c	-0.2539481
128	0xbe1ce48f	-0.15321563
129	0xbdb45c87	-0.08806711
130	0x3e964adf	0.29353997
131	0xbd2d3bda	-0.042293407
132	0xbe3ce79d	-0.18447728
133	0xbe89be1b	-0.2690285
134	0xbdec806d	-0.11547933
135	0x3ecea939	0.40363482
136	0x3e6055eb	0.21907775
137	0xbe95b875	-0.29242292
138	0xbe8952ed	-0.2682108
139	0xbe485620	-0.19564104
140	0x3ecae809	0.39630154
141	0x3eaea488	0.34109902
142	0x3a908eb3	0.0011028856
143	0xb9c16abc	-0.00036891352
144	0xbe4d5dae	-0.20055267
145	0x3e56cba0	0.20976114
146	0x3ec22ea8	0.3792622
147	0x3df86196	0.12127988
148	0x3e171b0f	0.14756416
149	0x3dcd09f7	0.10011666
150	0xbda8886b	-0.08229145
151	0x3e170371	0.14747407
152	0xbca26507	-0.019823564
153	0x3db6c7ac	0.08924803
154	0x3daae491	0.08344377
155	0x3dcf7ff8	0.1013183
156	0x3d9fdc3f	0.078056805
157	0xbc817827	-0.015804363
158	0xbd543570	-0.051808774
159	0x3dafe933	0.08589401
160	0x3ca64dd4	0.020300783
161	0x3d74b0b7	0.05973884
162	0x3e0b3e49	0.13597979
163	0xbc78f8ab	-0.015196006
164	0x3ded0493	0.11573138
165	0xbdfcbe7c	-0.123410195
166	0x3d3724f6	0.044712983
167	0xbd1adab9	-0.037806246
168	0xbd2e8708	-0.042609245
169	0x3dc95af7	0.09831803
170	0x3d48dfed	0.049041677
171	0x3db230b6	0.08700697
172	0x3d9c7cd7	0.07640999
173	0x3dc7ebec	0.097617954
174	0xbd0d6e08	-0.034528762
175	0x3dafd264	0.08585051
176	0x3d1cf34e	0.03831797
177	0x3b0199ed	0.0019775585
178	0x3d45d786	0.048301242
179	0xbdf49d9a	-0.119441226
180	0xbdaa58b0	-0.08317697
181	0x3c52bff9	0.012863153
182	0xbd11ef44	-0.035628572
183	0xbc0e5295	-0.008686681
184	0xbdfcd143	-0.12344601
185	0x3cdcf9ed	0.026974643
186	0x3dd275f5	0.10276405
187	0xbdc7b139	-0.097505994
188	0x3dea05cd	0.11426888
189	0xbce0527e	-0.027383085
190	0xbdae8536	-0.08521502
191	0x3cb8e8b1	0.022571893
192	0xbe046ac2	-0.1293135
193	0xbbc74897	-0.0060816514
194	0xbdb5c541	-0.08875514
195	0x3d73f262	0.059557326
196	0xbbb0ff98	-0.005401563
197	0xbcffdd72	-0.031233523
198	0xbd563d79	-0.05230472
199	0x3cd1c399	0.025605964
200	0xbdeb1e94	-0.11480442
201	0xbe2eec28	-0.17082274
202	0xbdbe57fd	-0.09294126
203	0xbe30e8a8	-0.17276251
204	0xbd5721db	-0.05252252
205	0x3ccb5559	0.02482097
206	0xbe4e8921	-0.20169498
207	0xbe749ecd	-0.23888703
208	0xbd3fea28	-0.04685417
209	0xbe6d1cc3	-0.23155503
210	0xbe18c96e	-0.1492059
211	0xbc84d60e	-0.01621535
212	0xbe1b00da	-0.15137044
213	0xbda15675	-0.078778185
214	0xbdf89249	-0.12137277
215	0xbe08d26e	-0.13361523
216	0xbddec194	-0.10876766
217	0x3bc70fda	0.0060748877
218	0xbe07be7d	-0.1325626
219	0xbd189b3a	-0.03725741
220	0x3dda655f	0.10663866
221	0xbd508dda	-0.05091653
222	0xbdc65761	-0.09684635
223	0xbd087dab	-0.03332297
224	0x3dc8c841	0.098038204
225	0x3940c191	0.00018382656
226	0x3dc889e6	0.09791927
227	0x3c4fc767	0.012681819
228	0x3e2f36d7	0.17110763
229	0xbdbcff02	-0.092283264
230	0x3d8f3c7f	0.069939606
231	0xbd56bf85	-0.05242874
232	0x3d45e955	0.048318226
233	0x3dfd686f	0.12373435
234	0xbd1df2cc	-0.038561627
235	0x3d7a744f	0.061146077
236	0x3b9627e2	0.004582391
237	0x3cea849d	0.028627688
238	0xbd0965d5	-0.03354438
239	0x3b9c70af	0.004774175
240	0x3d0505c2	0.032476194
241	0xbce15d27	-0.027510239
242	0xbd05509a	-0.03254757
243	0xbd18e4f8	-0.037327737
244	0xbde5066c	-0.111828655
245	0xbd17018a	-0.036866702
246	0x3daabf58	0.08337277
247	0x3e1c4c52	0.15263489
248	0x3da9e67d	0.08295915
249	0x3d82b3b3	0.06381931
250	0xbd50f575	-0.051015336
251	0x3deafb9a	0.114737704
252	0x3cd070b1	0.02544436
253	0xbd4b13d1	-0.049579445
254	0xbdabc350	-0.08386862
255	0xbcd4b0e9	-0.025963264

extractor.0.bias f4 [32]
0	0x3e8d18f3	0.27558097
1	0xbee3ee77	-0.44517872
2	0xbebc771d	-0.36809626
3	0xbda3db0f	-0.080007665
4	0xbcee3a4d	-0.029080534
5	0xbf574908	-0.8409581
6	0xbefa8521	-0.48929694
7	0xbe84d8c0	-0.25946617
8	0xbf3fcbbd	-0.74920255
9	0xbf050fe8	-0.51977396
10	0xbbec9347	-0.0072197053
11	0xbf1d9719	-0.6155868
12	0xbeb8de7e	-0.36107248
13	0xbf3c42c0	-0.7353935
14	0xbeba310c	-0.36365545
15	0xbeb933e9	-0.36172417
16	0xbf0aa195	-0.54152805
17	0xbecb4ae8	-0.39705586
18	0xbecfd9d7	-0.40595886
19	0xbf1840a7	-0.5947365
20	0x3e72d659	0.2371458
21	0xbef71c2f	-0.4826369
22	0xbf1bb4a8	-0.60822535
23	0xbe914b9f	-0.28378007
24	0xbe8edf11	-0.2790456
25	0xbdf93cd8	-0.12169808
26	0x3e625d30	0.2210586
27	0xbdffb811	-0.1248628
28	0xbf08a58b	-0.533776
29	0xbf28f5bc	-0.6599996
30	0xbea0c0f3	-0.3139721
31	0x3d31ac49	0.043377195

extractor.3.weight f4 [48, 32, 5, 5]
0	0xbcabec33	-0.020986652
1	0xbca6caed	-0.020360434
2	0xbd55c298	-0.052187532
3	0xbac071ba	-0.0014682331
4	0x3cd1b25f	0.02559775
5	0x3d51b1b3	0.051194858
6	0x3cc0ecfa	0.0235505
7	0xbd0121d9	-0.03152642
8	0x3d0f23a2	0.03494609
9	0x3cd8a65f	0.02644652
10	0x3a6b301d	0.0008971708
11	0xbdb9c2e4	-0.090703756
12	0xbd91adf7	-0.07113259
13	0xbdac1422	-0.084022775
14	0xbd41aaba	-0.04728196
15	0xbd10c621	-0.0353452
16	0xbd932cbb	-0.07186266
17	0xbdfd6c3d	-0.123741604
18	0xbd8aaf0f	-0.06771671
19	0xbd7a7fb0	-0.06115693
20	0xbb224cb4	-0.0024764957
21	0xbda8f3bd	-0.082496144
22	0xbca6ba3a	-0.020352472
23	0x3b6959cf	0.0035606509
24	0xbba6d00a	-0.005090718
25	0xbd145cb9	-0.03622124
26	0xbd260893	-0.04053552
27	0xbcc45382	-0.0239656
28	0xbcb89f6f	-0.022536961
29	0x3cc7aa9d	0.024373347
30	0x3d0c3976	0.034234487
31	0x3c58476a	0.01320062
32	0xbc90b8e4	-0.017666288
33	0x3c42b396	0.011883637
34	0x3c0c226f	0.0085531315
35	0x3c315ab9	0.010824853
36	0x3cb90172	0.022583697
37	0xbd3fd2fa	-0.046832062
38	0x3bcd10ad	0.0062580914
39	0xbc71a7de	-0.014749495
40	0xbccecb77	-0.025243504
41	0xbdb63702	-0.08897211
42	0xbd812863	-0.06306531
43	0xbd24b870	-0.040214956
44	0xbcd79436	-0.02631579
45	0x3c4c22ec	0.012459498
46	0xbcc2a4b6	-0.02376018
47	0xbcbd8a8c	-0.023137353
48	0xbbcd3dfb	-0.006263492
49	0xbd49339e	-0.04912149
50	0xbc9eda35	-0.019391159
51	0x3ceb23cd	0.028703595
52	0x3d11f19e	0.035630815
53	0x3d0f4977	0.03498217
54	0x3d13e788	0.036109477
55	0xbc64d3b8	-0.013966493
56	0xbcb53973	-0.02212212
57	0xbbe298eb	-0.006915202
58	0x3cc8545a	0.024454284
59	0x3d19d50a	0.037556686
60	0x3d2bd065	0.041946787
61	0x3cab9ab2	0.020947788
62	0x3cb462de	0.0220198
63	0x3cea6e38	0.02861701
64	0xbc909f51	-0.017654093
65	0xbcc0a59d	-0.02351647
66	0x3c015b56	0.007895311
67	0xbd001fe8	-0.03128043
68	0xbc211695	-0.009832044
69	0xbc3f87f7	-0.011690131
70	0xbd037af0	-0.032099664
71	0xbcccc160	-0.024994552
72	0x3c312714	0.01081254
73	0xbce46a45	-0.027882705
74	0xbb00267c	-0.0019554188
75	0xbc9ca93c	-0.019123666
76	0x3ccb1afc	0.02479314
77	0xbbecad00	-0.0072227716
78	0x3b0cdc98	0.0021493789
79	0x3ba65208	0.005075697
80	0xbd0aa241	-0.033846144
81	0xbba7592e	-0.0051070666
82	0x3a80370a	0.0009782028
83	0xba89b77b	-0.0010506952
84	0x3d0555f0	0.03255266
85	0x3c1feaac	0.00976054
86	0xbc186a8a	-0.009302745
87	0x3b912deb	0.0044305227
88	0x3ca94a3a	0.020665277
89	0xbc22ab19	-0.009928488
90	0xbcd42a2f	-0.025899021
91	0xbc9e74ec	-0.019342862
92	0xbcc3c09d	-0.023895556
93	0xbc5e6626	-0.013574159
94	0xbc0afa4b	-0.008482526
95	0xbd8aa2b1	-0.06769312
96	0xbd433c20	-0.04766476
97	0xbbc42c87	-0.0059867534
98	0xbc8c7456	-0.017145317
99	0x3ac3f3fa	0.001495003
100	0xbd71f01d	-0.05906688
101	0xbd341f40	-0.043975115
102	0xbcde1e03	-0.02711392
103	0xbb29b751	-0.0025896619
104	0xbcea331f	-0.02858883
105	0xbc9e12fa	-0.019296158
106	0xbcaac6e3	-0.02084679
107	0xbc97fe33	-0.018553829
108	0x3b674d13	0.0035293743
109	0xbc71b47e	-0.014752505
110	0xbc2efe9b	-0.01068082
111	0x3cb84a9f	0.02249652
112	0x3a9adfda	0.001181598
113	0xbd145f9e	-0.036224
114	0x3b97bb3d	0.004630475
115	0xbc9edfe2	-0.019393865
116	0xbc35e71b	-0.011102463
117	0xbb5cac7f	-0.0033672152
118	0xbc24598e	-0.010031117
119	0x3cdfffcf	0.027343659
120	0x3cba69f9	0.02275561
121	0x3c83c17b	0.01608347
122	0xbd2efef3	-0.042723607
123	0x3ca4028f	0.020020751
124	0x3d005718	0.03133306
125	0xbc20eb01	-0.009821654
126	0x3d04a801	0.032386784
127	0xbc30c116	-0.010788223
128	0xbc12c350	-0.008957699
129	0xbd45d14a	-0.048295297
130	0xbd44d1ed	-0.048051763
131	0xbd13374e	-0.035941415
132	0xbd135146	-0.03596618
133	0xbd3b262d	-0.045690704
134	0xbd16b8df	-0.0367974
135	0xba3e6e77	-0.00072643853
136	0xbbb3a7e7	-0.005482662
137	0xbdbcc4a8	-0.09217197
138	0xbd8d72d9	-0.06906671
139	0xbc9bb59c	-0.019007497
140	0x3d6ec2b2	0.058291145
141	0x3cf54979	0.029942261
142	0xbd72a917	-0.059243288
143	0x3c893a58	0.016751453
144	0x3d16322d	0.036668945
145	0x3d16caeb	0.03681461
146	0xbaae1e63	-0.0013284202
147	0xbd142f10	-0.036177695
148	0xbd362edb	-0.04447828
149	0x3b85354d	0.004065192
150	0x3b71e6e1	0.0036911296
151	0x3ca150a9	0.019691782
152	0x3d3aba0a	0.045587577
153	0xbc5e2978	-0.013559692
154	0x3b6ed0b6	0.003644032
155	0x3a1c71b7	0.00059678726
156	0xbad2b07c	-0.0016074325
157	0xba76ebd7	-0.0009419298
158	0xbc57ec2c	-0.013178866
159	0xbd0d5c8b	-0.034512084
160	0xbcf83b75	-0.030301789
161	0x3ca293d5	0.019845882
162	0x3d11dba2	0.03560985
163	0x39ba68f5	0.00035554884
164	0xbad20f9c	-0.001602638
165	0xbcf61868	-0.030040935
166	0x3c688cd8	0.014193736
167	0xbbead97e	-0.0071670404
168	0x3d09b90e	0.033623748
169	0x3c9ff82f	0.019527523
170	0xbd10b9c7	-0.03533342
171	0x3ba16558	0.004925411
172	0x3c971707	0.018443597
173	0xbce104d9	-0.027468132
174	0xbbae83d0	-0.005325772
175	0x3d22d7d5	0.039756615
176	0x3c6cf93d	0.01446372
177	0x3c9df332	0.019281004
178	0xbc9d4d5f	-0.019201932
179	0xbd18ff2d	-0.03735273
180	0x3c52e00f	0.012870803
181	0x3d1f1726	0.038840435
182	0x3d4d3f5e	0.05010926
183	0xbb92de3c	-0.004482059
184	0xbbc742b5	-0.00608095
185	0xbc47b886	-0.01218999
186	0xbcf128e3	-0.029438442
187	0x3c9aecc7	0.018911732
188	0xbd004ae4	-0.03132142
189	0xbd69e7e7	-0.057105925
190	0xbd07ad86	-0.03312447
191	0x3c05db2a	0.008169929
192	0x3b73e712	0.0037216586
193	0x3a1a09d6	0.00058760995
194	0xbc87fd56	-0.016600292
195	0x3c0ced4b	0.008601497
196	0x3c18d04d	0.0093270065
197	0xbbc70107	-0.0060731205
198	0xbd126fdb	-0.035751205
199	0x3c9edc8d	0.019392276
200	0x3d841055	0.064484276
201	0xbc17453a	-0.0092328135
202	0x3d2e5fdc	0.042571887
203	0x3c89f86f	0.016842095
204	0xba90365c	-0.0011002528
205	0x3d8e3008	0.06942755
206	0xbd580b53	-0.052745175
207	0xbb1a0fe3	-0.0023508004
208	0xbc43ff72	-0.011962758
209	0x3ba63166	0.0050718067
210	0xbd090360	-0.033450484
211	0xbd61484d	-0.055000592
212	0xbd397838	-0.045280665
213	0xbcb676c7	-0.022273434
214	0xbc0ac843	-0.008470598
215	0xbdaf637e	-0.085638985
216	0xbdb8e040	-0.09027147
217	0x3ca8c039	0.020599471
218	0x3d5505a5	0.052007336
219	0xbc2b622d	-0.010460419
220	0xbda7ba49	-0.08189828
221	0xbd67f24d	-0.05662756
222	0x3d9967ea	0.07490523
223	0x3c76a491	0.015053884
224	0xbd4a907f	-0.04945421
225	0xbd1ff733	-0.039054107
226	0xbd4b2116	-0.0495921
227	0x3cd1d4de	0.025614198
228	0xbce18ee5	-0.027533958
229	0xbd293899	-0.04131374
230	0xb9e914de	-0.0004445677
231	0xbd793b90	-0.06084782
232	0xbca48721	-0.020083966
233	0x3c18be2d	0.009322685
234	0x3c3deeec	0.011592608
235	0x3d0bbeea	0.034117617
236	0x3c3cbe5d	0.0115199955
237	0x3bf32315	0.0074199536
238	0x3c1afde9	0.009459951
239	0x3ba2be21	0.004966513
240	0x3d04fb9f	0.032466527
241	0x3cd1ff64	0.025634475
242	0xbcb8e7ca	-0.022571463
243	0xbc753837	-0.014967016
244	0x3bd744b7	0.0065694707
245	0x3cacc7dc	0.021091394
246	0xbd27e523	-0.040990006
247	0xbd958b35	-0.07301942
248	0xbc94267c	-0.018084757
249	0xbd5c9a0c	-0.053857848
250	0xbc6dc808	-0.014513023
251	0x3a8adabb	0.0010593751
252	0xbd24b29a	-0.04020939
253	0xbc14fb02	-0.009093048
254	0xbd81a357	-0.06329983
255	0x3c528ca3	0.012850913

extractor.3.bias f4 [48]
0	0xbdb07ce3	-0.0861757
1	0xbdbb7214	-0.09152618
2	0xbe0413dd	-0.12898202
3	0xbda7166c	-0.081585735
4	0xbe585920	-0.21127748
5	0xbdbeaf2a	-0.09310754
6	0xbd968a69	-0.073506184
7	0xbe073d87	-0.13207065
8	0xbd633402	-0.05546952
9	0x3d245ffb	0.040130597
10	0xbdc41555	-0.09574381
11	0xbdc3e995	-0.095660366
12	0xbe8c13e3	-0.27358922
13	0xbe079406	-0.1324006
14	0xbd9747f1	-0.073867686
15	0xbd3ba167	-0.045808222
16	0xbcb441a6	-0.02200396
17	0xbe07899f	-0.13236092
18	0xbe1aafff	-0.151062
19	0xbca96ab9	-0.020680772
20	0xbde197c2	-0.11015274
21	0xbd0e2daa	-0.034711517
22	0xbda17f8e	-0.07885657
23	0xbded2d8d	-0.11580954
24	0xbe96bb2b	-0.29439673
25	0xbe49ba46	-0.19699964
26	0xbe22313e	-0.15839097
27	0xbe18c905	-0.14920433
28	0x3b801574	0.0039088074
29	0xbe168850	-0.14700437
30	0xbc088ee7	-0.008334852
31	0xbcdb05a6	-0.026736092
32	0x3ab8e26d	0.0014105566
33	0xbe92d0f0	-0.28675032
34	0xbe868f23	-0.2628108
35	0xbed13ecc	-0.40868223
36	0xbe2ff53b	-0.17183392
37	0xbd01740f	-0.031604823
38	0xbd54f96e	-0.051995687
39	0xbdbbfac8	-0.09178692
40	0xbe2cd0f5	-0.16876586
41	0xbdf10c31	-0.117699035
42	0xbe351429	-0.17683472
43	0xbd206412	-0.039157934
44	0x3c55c926	0.013048446
45	0xbe97d132	-0.2965179
46	0xbe12ed3b	-0.14348309
47	0xbe0e3b8c	-0.13889903
