trained_models/encoder_Source-only.pt (torch, 166293 bytes, 4 tensors)

extractor.0.weight f4 [32, 3, 5, 5]
000000 dc c0 db bc 6a aa e1 3d 56 9c a8 3d c3 25 c0 bd
       -0.026825361 0.11018832 0.08232944 -0.093822025
000010 b8 89 43 bd f8 6f a3 3d 21 7b 06 3d 0d e3 d1 bd
       -0.04773876 0.07980341 0.03283227 -0.102483846
000020 ac 3f 49 3d 2c ce 20 be 0e 39 bb bd 4d 5c 7a bd
       0.049132988 -0.15703648 -0.09141742 -0.06112318
000030 39 1a dc bd 06 d6 63 bd d0 00 ad 3c f8 a3 7e 3d
       -0.10747189 -0.05562403 0.021118551 0.06216809
000040 df 83 a8 3d a0 53 31 3e 29 f8 9f 3d 01 06 2e bd
       0.082282774 0.17317057 0.07811005 -0.042486195
000050 b7 56 30 bd 78 ed 99 3d ab ca a0 3d b7 77 34 3d
       -0.043051448 0.07515997 0.07851156 0.04405948
000060 3b ac 34 3d 24 d4 43 bd f1 b6 87 3d ec 64 9f 3d
       0.044109564 -0.047809735 0.0662669 0.07782921
000070 06 69 ed bd a7 d3 46 bd e1 a1 ee bc c7 24 f2 3d
       -0.11592297 -0.04854169 -0.029129924 0.11823421
000080 e7 09 73 bd 8e 46 2d bd 1a 8d 1e be 96 d7 d5 3c
       -0.059335615 -0.042303614 -0.15483513 0.026103776
000090 9c 91 aa bb 42 d5 9c 3c 43 13 04 be c7 e6 51 3d
       -0.0052053463 0.019144658 -0.12897973 0.051245477
0000a0 d1 91 8c bb 77 85 28 3d e4 4c 29 3e ac 49 e0 3d
       -0.0042898436 0.041142907 0.16533238 0.10951552
0000b0 18 7d 8e 3d af f6 b7 bd f7 10 9e 3c 87 0e f8 3d
       0.069574535 -0.08982598 0.019295199 0.12112146
0000c0 9d b1 90 bd f6 06 b7 3d 95 00 c3 3c 58 e4 54 bd
       -0.07065127 0.089368746 0.023803988 -0.051975578
0000d0 a1 1c e3 3c ae c6 05 be a5 2f e1 3c 49 f8 26 3b
       0.027723612 -0.13064072 0.027488539 0.002547758
0000e0 ba f9 ce bd 65 9e 9e bd be 22 10 bd 1a 12 b6 bd
       -0.10106225 -0.07745055 -0.035189383 -0.08890171
0000f0 c1 a7 33 bd 5f 67 03 3e b9 fc 02 be 9d a3 08 be
       -0.043861154 0.12832402 -0.12791719 -0.13343664
000100 d0 af 3e 3c fc b3 17 bd 16 35 c4 3d 25 c1 19 3d
       0.011638597 -0.03703688 0.09580438 0.037537713
000110 d6 6d 32 bd da c6 d9 3d 2d 0a 9d 3d 63 e6 4a bd
       -0.04356178 0.10633631 0.076679565 -0.04953612
000120 48 b7 0b 3e 17 cb df bc 4b c0 b4 3d 0b 04 85 3d
       0.13644135 -0.02731852 0.088257395 0.06494912
000130 40 e5 70 bd d6 b4 0b be 53 c9 d8 3c f3 2a a8 bd
       -0.05881238 -0.13643202 0.026463186 -0.08211317
000140 2a 08 b0 3d 9c 63 ea bd 41 bb 5d bd ee cb 39 be
       0.08595307 -0.1144478 -0.054133657 -0.18144199
000150 62 d0 84 bd 87 f2 a6 3d 8d de bb 3d be 22 01 be
       -0.06485058 0.08151727 0.091733076 -0.1261091
000160 ae 06 95 bd db 72 0f 3d bb 76 30 3e d0 90 40 3e
       -0.07276665 0.035021644 0.17232792 0.18805242
000170 e9 d3 89 3d 05 57 81 3d 08 5d f7 bb 3c 76 59 3c
       0.06729872 0.06315426 -0.007548932 0.013272818
000180 5e a6 dc 3d 0c 19 a3 bd 81 78 73 3d 3a 0e 9a 3c
       0.107739195 -0.07963762 0.059441093 0.018805612
000190 25 78 8f ba 17 e7 b8 3c 3f 57 75 bc 72 e5 8c 3d
       -0.001094584 0.02257113 -0.014974414 0.06879701
0001a0 02 55 af bc 84 40 a8 3d ed cd 23 bd bb b1 b6 bb
       -0.02140284 0.082154304 -0.039991308 -0.0055753863
0001b0 3e e8 12 be b7 3b eb 3a fe 24 48 bd 39 9e 68 bc
       -0.14346406 0.0017946874 -0.048863403 -0.0141978795
0001c0 5b 22 19 be ac fa ea 3c 64 30 eb bd f2 17 0a 3e
       -0.14954512 0.028683983 -0.11483839 0.13485697
0001d0 50 5e 0a 3e 93 ac e4 3d 47 3f 00 bd 3a 20 59 3d
       0.1351254 0.111657284 -0.031310346 0.05300925
0001e0 c5 c5 c4 3d 79 b5 2c bd 68 20 0f 3e 1d 6a 1d 3d
       0.09608034 -0.042165253 0.13977206 0.038431276
0001f0 cb 1a 5a bd 27 b1 81 bc 75 17 5a bd d1 4e 10 be
       -0.053248208 -0.015831543 -0.053245027 -0.14092566
000200 73 25 b9 3d 84 e0 c4 3d fa 05 c6 3d 17 a7 06 be
       0.09040346 0.096131355 0.09669109 -0.13149677
000210 5a e5 1e bd 8d 80 1b be 6f c9 36 3d 40 16 32 3e
       -0.038792945 -0.15185757 0.044625696 0.173913
000220 cd c8 1d bd a4 d6 13 be d2 e3 09 be 96 7d 7d bc
       -0.038521577 -0.14437348 -0.13465813 -0.015471837
000230 21 88 25 3e b1 69 57 3d 8d ad 08 bd 96 0c 19 3c
       0.1616521 0.05259103 -0.033368636 0.00934138
000240 6b 2e 05 be ae 5f a6 bd ec 62 05 3e 71 0f 2c 3d
       -0.13005988 -0.08123718 0.13026017 0.042006914
000250 76 d0 6b 3d ab d4 95 3c 51 51 ae bd 03 8e 66 3d
       0.05757185 0.018289885 -0.085116036 0.056287777
000260 f6 fb d5 bd ee 3f d9 b9 5f 3c ba 3c 72 6a ee 3d
       -0.10448448 -0.00041437097 0.022733865 0.116413966
000270 8e f5 49 3d e5 f0 47 bd 72 80 b5 bd 56 84 19 3d
       0.049306445 -0.04881372 -0.088623896 0.03747972
000280 45 9a 0d 3d 0e 1c fc 3c f7 d2 c6 3d 53 8f 79 bd
       0.03457095 0.030775096 0.09708207 -0.0609277
000290 5a e8 a9 3d ec 4c df bd be 3b 8b 3d 77 95 a4 bc
       0.08296271 -0.109033436 0.06798504 -0.020090802
0002a0 49 7e 1b bd 32 c5 03 3e 6a fd 1f 3d a6 a2 b5 3d
       -0.03796223 0.12868193 0.039060034 0.08868913
0002b0 81 ea b2 3d 80 45 ed 3d 3a f1 81 ba c4 cd e5 3d
       0.08736134 0.11585522 -0.000991381 0.11220887
0002c0 6e 56 30 bb 33 5e fc bc 88 26 cf 3b c4 30 11 be
       -0.0026906985 -0.030806636 0.006321732 -0.14178759
0002d0 f4 08 0e bd cb 46 0d 3d 29 71 a4 bc fe 2a a7 bb
       -0.034676507 0.03449134 -0.02007349 -0.0051015606
0002e0 9f 16 0e be e0 bf 98 3d 0d 56 ed 3d fd c1 be bd
       -0.13875817 0.07458472 0.115886785 -0.09314344
0002f0 ab 6a d4 3d 9f ed 0d bd f3 b9 2e bd 2e 7b a9 3d
       0.10371908 -0.03465044 -0.042657804 0.08275448
000300 6f 40 9c bd f4 41 ec 3c a2 e3 25 bd 2c 72 8e 3d
       -0.07629477 0.028840043 -0.04050029 0.0695537
000310 fc 16 e4 3c cd 42 31 3c 44 ec 14 bc 2b 4e 87 3d
       0.027842991 0.010819149 -0.009089533 0.06606706
000320 68 72 05 bd 0d 23 e7 bd c4 d0 a8 bc da ea f3 bd
       -0.03257981 -0.11285982 -0.02060736 -0.11910029
000330 cc 93 c9 3c 21 73 03 3e b8 a8 a7 bd 5d 8e fa bd
       0.024606608 0.12836887 -0.081864774 -0.12234185
000340 97 56 57 3d 6b c2 18 be 5d 0e 8f bd 2b b5 53 3d
       0.052572813 -0.14917915 -0.069851615 0.051686447
000350 2a 61 ae bd ec c3 c4 bc b8 cd 8d bd 01 32 b9 bd
       -0.08514626 -0.024019204 -0.06924003 -0.090427406
000360 7b a3 b4 bc 74 eb a9 3d 39 26 74 bd 2e 1b 1a 3d
       -0.02205061 0.08296862 -0.059606764 0.037623577
000370 b1 63 b6 3d 12 f5 ef bc 30 26 76 bd df d3 a8 3c
       0.089057334 -0.029291663 -0.060095012 0.02060884
000380 30 71 09 3e cf a3 e3 bc e7 6b be 3d d8 30 d3 bc
       0.13422084 -0.027788071 0.092979245 -0.025780126
000390 60 fa e1 3d b8 d6 d2 bd a7 d4 da ba f6 b9 e8 bd
       0.11034083 -0.102948606 -0.0016695455 -0.11363594
0003a0 f1 ac 4e bc 1b 94 4f 3d c3 d8 91 bd c6 fa 87 3c
       -0.012614475 0.050678354 -0.07121422 0.01659907
0003b0 e4 34 71 bd ac 06 3d bd 57 a5 c4 bd 57 8e bc bb
       -0.05888833 -0.04614894 -0.096018486 -0.005754273
0003c0 f1 12 c8 bc af 94 bc bd 32 62 f0 bd 6a 1f df bd
       -0.024423094 -0.09208047 -0.11737479 -0.10894664
0003d0 44 5a c6 bd a5 f4 87 bd d5 4a 56 bc 4d 7d 8d 3d
       -0.096851856 -0.06638459 -0.013079365 0.06908665
0003e0 c5 5e 23 3d b4 37 a1 3d 56 2e 88 bd 7e ac f0 3d
       0.0398853 0.07871953 -0.06649463 0.1175165
0003f0 80 e5 54 bc 67 18 df bd dc a5 e2 bd ff 07 a7 bd
       -0.01299417 -0.10893326 -0.110667914 -0.08155822

extractor.0.bias f4 [32]
000000 b4 03 2f 3d 75 60 85 bd 78 97 8a bd 5a 20 93 bd
       0.04272814 -0.06512538 -0.067671716 -0.07183905
000010 2b 38 0c bd e6 16 bc bc 7c 66 d9 bd 02 10 9c 3b
       -0.034233253 -0.022960138 -0.106152505 0.0047626505
000020 0d a6 0c be 83 f1 ab 3b 4c 5d ce 3c ea 5c ab bd
       -0.13735218 0.0052472963 0.025190972 -0.08367331
000030 20 c5 85 bd e1 5a 2e be 0d a7 d1 bd a7 77 bb 3c
       -0.06531739 -0.17026855 -0.102369405 0.022884203
000040 18 62 04 be 10 82 f3 3c 59 b5 58 3c 16 98 3d 3d
       -0.12928045 0.029725105 0.01322683 0.04628762
000050 3f ea 87 3c 32 d3 48 3a 1d fd eb bd 23 11 c2 3d
       0.01659119 0.0007660865 -0.11522887 0.09475925
000060 9c 99 d5 bc 60 d9 95 3d d3 1f bd 3d 2c 17 2e bd
       -0.026074223 0.073168516 0.092345856 -0.042502567
000070 e9 2c 17 bd 92 93 c4 3d c4 62 81 bd 61 fe b9 bd
       -0.036908064 0.09598459 -0.06317666 -0.09081722

extractor.3.weight f4 [48, 32, 5, 5]
000000 88 91 ef bc b9 a9 f6 bc fe 2c dd bc ab ab 86 bc
       -0.0292442 -0.030110227 -0.026998993 -0.01643928
000010 75 fc 0f bc e0 80 f2 3c 42 bf 96 3c 26 ce e0 3b
       -0.008788218 0.029602468 0.018401746 0.0068605123
000020 83 36 b5 3c e4 9a ad bc 53 19 bd 3c b0 57 27 bd
       0.02212072 -0.021192022 0.023083365 -0.04085511
000030 d7 07 bc 3c ed 88 fe bc 46 36 e7 bc 94 ea bd 3a
       0.022952957 -0.03107115 -0.028224122 0.0014489465
000040 0d 35 aa 39 a8 b9 3e bd fb 01 e0 bc 03 12 a8 bc
       0.00032464453 -0.046563774 -0.027344694 -0.020516401
000050 f5 2c 08 3d ec 38 d2 bc 7b 33 49 3c 9f 2d bd 3b
       0.033246 -0.025661908 0.01228034 0.0057732607
000060 cf 3d df 3a ea 83 fa bc 9d 36 32 bd 96 cb 5f bc
       0.001703197 -0.03058048 -0.043509115 -0.0136593785
000070 11 b3 6d bc d5 b2 6d 3c 8c e5 13 3d a1 72 eb bb
       -0.014508025 0.014507969 0.036107585 -0.0071852957
000080 9b b7 0a bd a7 d8 3d 3c 9a 8a 54 bc 25 73 62 3c
       -0.033866506 0.0115872985 -0.012972498 0.013821398
000090 60 42 54 3c ad 9d 02 bd c7 36 af 3c 78 97 cb bb
       0.012955278 -0.031888653 0.021388425 -0.006213125
0000a0 77 c9 9f bb 57 73 72 bd 68 db c3 ba b1 90 a2 bc
       -0.0048763114 -0.059192028 -0.0014942707 -0.019844385
0000b0 18 52 c8 bb 19 73 19 3d 08 80 82 ba 6c 7c e8 3c
       -0.006113302 0.03746328 -0.0009956369 0.028379641
0000c0 9a 44 e5 ba 62 40 da bc 11 cc 97 bc 14 fa 91 3c
       -0.0017491758 -0.026642028 -0.018529924 0.017819442
0000d0 ce 9f c9 3c 48 fb 96 3c 20 28 49 3c 3b 69 78 bc
       0.024612334 0.018430367 0.012277633 -0.015161808
0000e0 81 e7 fc bc e2 99 62 bc 2b 2c 2b 3c 82 77 8d 3c
       -0.030872108 -0.013830634 0.010447542 0.0172689
0000f0 a4 8f 1d 3d 8c 0c 46 3c 67 64 4b 3c 08 0b 69 3c
       0.038467064 0.012087952 0.0124140745 0.014223821
000100 57 40 09 bd 90 de 08 bd cf d5 8b 3b 94 59 ac bc
       -0.033508625 -0.033415377 0.0042674313 -0.021038808
000110 da c3 ce bb ef 2e 60 bb 2c 80 00 bd 54 86 05 bd
       -0.0063099684 -0.0034207662 -0.031372234 -0.03259881
000120 b8 71 b5 3c 77 be f4 bc 61 78 29 3c 51 ec f7 bb
       0.022148952 -0.029875977 0.010343642 -0.007566013
000130 f6 f1 a2 3c eb c7 83 bb bb bc 4b bc 5d 2e 63 bc
       0.019890767 -0.004021635 -0.012435134 -0.013866034
000140 e1 d5 b8 bc 00 6e 98 ba 2b 27 83 3c c2 47 47 3a
       -0.022562923 -0.0011629462 0.016009888 0.00076019403
000150 fe 1f 01 3d f5 f3 db 3c e3 57 a6 3b 18 7d ec 3c
       0.03152465 0.026849726 0.005076395 0.028868243
000160 7d 96 d9 3c ae ad 74 3b 1e 0f 84 ba bd 19 9b 3c
       0.026561016 0.0037334966 -0.0010075306 0.018933171
000170 44 bd 01 bc 54 32 3a 3b f9 7a a8 3c 69 48 f6 bc
       -0.00791866 0.0028411346 0.02056645 -0.030063825
000180 07 ee 3e bc de 56 d5 3c 26 c4 33 3c 4f 54 01 3d
       -0.01165343 0.026042398 0.010972058 0.031574544
000190 5a bf 28 bd 52 c9 eb bc 66 8f 83 bc f5 05 ac 3c
       -0.041198112 -0.02878252 -0.016059589 0.020998934
0001a0 7f e9 fc 3b 71 29 ad bb 95 b1 7c bc 9b cd 05 bc
       0.0077182646 -0.005284481 -0.015423198 -0.008166696
0001b0 02 ba 01 3d 4d 9d 5e 3c 79 18 08 bc 23 5c 63 3c
       0.03167153 0.013587308 -0.008306616 0.013876948
0001c0 36 de 1e 3b 1b ff 9d bb 03 85 f8 3c ae a2 a4 bc
       0.0024241335 -0.0048216707 0.030336862 -0.020097103
0001d0 d2 25 2d bc d1 ef b4 3c 39 1f 8b 3c de 25 09 3d
       -0.010568099 0.02208701 0.016982662 0.03348338
0001e0 06 7a f0 3c 57 32 d7 3c 75 ab 02 bd 56 ed 62 3c
       0.02935506 0.026269121 -0.031901795 0.013850531
0001f0 b5 8b 91 3c 8a 12 b4 bc 62 54 b9 bc c8 72 2d bd
       0.017766813 -0.021981496 -0.022623245 -0.042345792
000200 de 7f d1 bb 5f 63 1a bd dd 73 22 bd 5a 6a 4e bd
       -0.006393417 -0.037692424 -0.039661277 -0.050394394
000210 a2 d3 00 bd a0 1a 0f bd 63 c6 cd bc cf 30 cc bb
       -0.03145183 -0.0349375 -0.025119012 -0.0062314044
000220 4c 4c 1e 3b c3 6a ce bc 15 19 c8 bc df 56 97 bc
       0.0024154363 -0.025197392 -0.024426023 -0.01847404
000230 6a 2c 00 bb fb e6 48 bc 9d ad ac bc 78 48 40 3d
       -0.0019557723 -0.012262101 -0.021078879 0.04694411
000240 35 ef 19 3c f3 01 48 3c a6 a7 e3 bc 43 74 be bc
       0.00939541 0.012207496 -0.027789902 -0.023248797
000250 09 73 c3 bc 89 d8 ee 3a 8d 3c cd 3b aa 61 5a 3c
       -0.023858564 0.0018222491 0.0062633217 0.013328949
000260 b1 e5 2b 3d 9e fe 9a 3c 5e 01 82 3c d3 41 6b bb
       0.041967098 0.018920239 0.015869793 -0.0035897389
000270 d4 ac 33 b9 0a a8 eb bb 29 2a 8f bc f9 11 cd bc
       -0.00017135154 -0.0071916627 -0.017476158 -0.025032984
000280 a4 89 20 bd bf cb f9 3c 94 71 0e 3d 26 3d a0 bc
       -0.039193764 0.030492662 0.034776285 -0.019560408
000290 64 a7 94 bb 64 ff 1c bd b4 60 8d 3c 5b bf a4 ba
       -0.004536556 -0.038329497 0.017258026 -0.0012569235
0002a0 49 78 05 3d 49 69 c7 3b f5 1d 09 bd 3c 34 c1 bc
       0.032585416 0.006085549 -0.033475835 -0.023584478
0002b0 74 f0 2e bc 42 16 8e bc 11 48 af 3b 37 3d d7 3c
       -0.010677446 -0.017344598 0.005349167 0.026274307
0002c0 64 ca 29 bc 75 f4 28 3c f5 7a c3 bc bf e5 0b bd
       -0.010363195 0.010312189 -0.023862341 -0.03415465
0002d0 e8 23 b3 3b f4 e8 97 3c 08 11 41 3d 3d d5 af 3b
       0.005466927 0.018543698 0.047135383 0.005365996
0002e0 f9 76 85 3b a8 8c 76 bc b7 ab e0 bc e1 60 37 3d
       0.0040730205 -0.0150481835 -0.02742563 0.044770125
0002f0 f2 16 b2 bb b1 70 38 bd d7 69 19 bd 7c 48 d7 3c
       -0.005434864 -0.045029346 -0.037454452 0.02627968
000300 ba 16 fd 3c 00 23 78 3c 32 d2 d0 bb 9e 95 49 3c
       0.030894626 0.015145063 -0.0063727135 0.012303738
000310 d0 14 d4 3c 83 5a ae 3b 12 31 29 bc 5e 54 cf 3c
       0.02588883 0.0053208484 -0.010326641 0.025308784
000320 b5 94 18 3d 02 67 88 bc 0e 5c 72 3b 5b 36 fd bb
       0.037251193 -0.01665068 0.0036981138 -0.007727427
000330 5e e2 72 3c c0 9e 4f 3d f7 93 61 bd a4 04 3f bc
       0.014824478 0.050688505 -0.05507275 -0.011658821
000340 49 65 b4 bc fc 47 c2 3c fc ef 75 bc 06 e7 ec bc
       -0.022020953 0.023715965 -0.01501083 -0.028918754
000350 72 d2 04 bc f6 2f 9a bc b4 1d ca ba b5 45 0b bd
       -0.008106815 -0.018821698 -0.0015420229 -0.034002025
000360 80 64 20 bd 52 45 5f 3d 5f a9 e7 3c 9e 8f 61 bc
       -0.039158344 0.05450947 0.028279005 -0.013767151
000370 71 d5 5b bd 84 4c 4b bb 83 49 65 3d db f9 1c bd
       -0.05367035 -0.0031020949 0.05597831 -0.03832422
000380 1c 79 7f bd 35 ab cc bc 83 08 57 bd 7b ab 96 3c
       -0.06237136 -0.024983982 -0.05249835 0.018392315
000390 eb 0e e8 bb 2d 49 dd bc ff 6d 72 3c 93 54 43 bd
       -0.0070818565 -0.027012432 0.014796733 -0.047688078
0003a0 50 a2 5d bc d6 a1 99 3c 43 6d c2 3c 2b c1 72 3c
       -0.013527468 0.018753927 0.02373374 0.014816563
0003b0 f6 bb ac bb 51 2c 19 3c d9 89 b5 3c bd e6 3a bc
       -0.00527143 0.009348945 0.022160457 -0.011407551
0003c0 e5 d8 1d bc 21 a8 15 3b a0 b5 96 bc e4 11 cf bc
       -0.009634231 0.0022835808 -0.018397152 -0.025277086
0003d0 52 8a 06 bd e9 4d aa 3c e7 52 5e bc 5b 42 43 bd
       -0.032846756 0.020789104 -0.01356957 -0.047670703
0003e0 b2 7d 4f bc 4f 65 2a bd 75 9b 88 bc f4 34 87 bc
       -0.012664245 -0.04160052 -0.01667569 -0.016504742
0003f0 80 fd 37 bd 74 75 89 3c 89 46 38 bd 38 b5 94 3c
       -0.04491949 0.016779639 -0.044989143 0.018152818

extractor.3.bias f4 [48]
000000 74 a6 cd bc 89 0a 1f bc 1c e1 7b bb d0 22 56 3a
       -0.025103785 -0.009707102 -0.0038433736 0.00081686396
000010 75 e7 0a 3b fd e6 3b bd fe 95 9e bc 95 39 87 bc
       0.0021195088 -0.045874584 -0.019358631 -0.01650695
000020 e6 89 16 bd 81 58 fc 3c 1c 2f 03 bd 00 bd 32 bd
       -0.036752604 0.03080392 -0.03202735 -0.043637276
000030 99 7a 36 bd c7 76 2a 39 87 21 ef 3c 98 bd 47 3c
       -0.044550512 0.00016256711 0.029190792 0.012191199
000040 8d 09 b1 bb 8f 68 79 bc 99 8b 33 3b d5 5f 9b bb
       -0.00540275 -0.015222683 0.002739644 -0.0047416487
000050 e8 84 83 3c 99 77 93 3b cc 11 61 3c 1b a1 a0 bb
       0.016054586 0.004500341 0.013737153 -0.004902018
000060 bb e2 2c bd 0e b1 02 3c 0f 19 1f 3b ca 25 ec 3b
       -0.042208415 0.007976783 0.002427641 0.0072066532
000070 da b0 ff bb d1 a9 4a bc 8e 7f bd 3b 6d ce 50 bc
       -0.007803065 -0.012369589 0.005783028 -0.012744528
000080 4f 74 35 bb fb e4 9a bc b7 e8 8b 3c 47 34 81 bb
       -0.0027687734 -0.018908015 0.01707874 -0.0039429995
000090 c5 fa 0d 3c b8 2e fe 3b 14 87 ed bc 71 0f 2d 3b
       0.008665745 0.007757034 -0.028995074 0.002640691
0000a0 d0 1b 52 bd 95 b1 09 3d 72 e8 93 3c 77 de ae bc
       -0.051296055 0.03361662 0.018055174 -0.021346314
0000b0 8d 33 a3 3c ab 3e c6 bc fb a4 48 bd b7 82 32 3c
       0.019922042 -0.024199804 -0.048985463 0.010895423
